<?xml version="1.0"?>
<net name="Model94" version="11">
	<layers>
		<layer id="0" name="input_ids" type="Parameter" version="opset1">
			<data shape="?,?" element_type="i64" />
			<output>
				<port id="0" precision="I64" names="input_ids">
					<dim>-1</dim>
					<dim>-1</dim>
				</port>
			</output>
		</layer>
		<layer id="1" name="self.model.embed_tokens.weight" type="Const" version="opset1">
			<data element_type="u8" shape="32, 8" offset="0" size="256" />
			<output>
				<port id="0" precision="U8">
					<dim>32</dim>
					<dim>8</dim>
				</port>
			</output>
		</layer>
		<layer id="2" name="Convert_162937" type="Convert" version="opset1">
			<data destination_type="f16" />
			<input>
				<port id="0" precision="U8">
					<dim>32</dim>
					<dim>8</dim>
				</port>
			</input>
			<output>
				<port id="1" precision="FP16">
					<dim>32</dim>
					<dim>8</dim>
				</port>
			</output>
		</layer>
		<layer id="3" name="self.model.embed_tokens.weight/zero_point" type="Const" version="opset1">
			<data element_type="u8" shape="32, 1" offset="256" size="32" />
			<output>
				<port id="0" precision="U8">
					<dim>32</dim>
					<dim>1</dim>
				</port>
			</output>
		</layer>
		<layer id="4" name="Convert_162940" type="Convert" version="opset1">
			<data destination_type="f16" />
			<input>
				<port id="0" precision="U8">
					<dim>32</dim>
					<dim>1</dim>
				</port>
			</input>
			<output>
				<port id="1" precision="FP16">
					<dim>32</dim>
					<dim>1</dim>
				</port>
			</output>
		</layer>
		<layer id="5" name="self.model.embed_tokens.weight/zero_point/subtract" type="Subtract" version="opset1">
			<data auto_broadcast="numpy" />
			<input>
				<port id="0" precision="FP16">
					<dim>32</dim>
					<dim>8</dim>
				</port>
				<port id="1" precision="FP16">
					<dim>32</dim>
					<dim>1</dim>
				</port>
			</input>
			<output>
				<port id="2" precision="FP16">
					<dim>32</dim>
					<dim>8</dim>
				</port>
			</output>
		</layer>
		<layer id="6" name="self.model.embed_tokens.weight/scale" type="Const" version="opset1">
			<data element_type="f16" shape="32, 1" offset="288" size="64" />
			<output>
				<port id="0" precision="FP16">
					<dim>32</dim>
					<dim>1</dim>
				</port>
			</output>
		</layer>
		<layer id="7" name="self.model.embed_tokens.weight/fq_weights_0" type="Multiply" version="opset1">
			<data auto_broadcast="numpy" />
			<input>
				<port id="0" precision="FP16">
					<dim>32</dim>
					<dim>8</dim>
				</port>
				<port id="1" precision="FP16">
					<dim>32</dim>
					<dim>1</dim>
				</port>
			</input>
			<output>
				<port id="2" precision="FP16">
					<dim>32</dim>
					<dim>8</dim>
				</port>
			</output>
		</layer>
		<layer id="8" name="self.model.embed_tokens.weight/fq_weights_0/convert" type="Convert" version="opset1">
			<data destination_type="f32" />
			<input>
				<port id="0" precision="FP16">
					<dim>32</dim>
					<dim>8</dim>
				</port>
			</input>
			<output>
				<port id="1" precision="FP32">
					<dim>32</dim>
					<dim>8</dim>
				</port>
			</output>
		</layer>
		<layer id="9" name="__module.model.embed_tokens/aten::embedding/Convert" type="Convert" version="opset1">
			<data destination_type="i32" />
			<input>
				<port id="0" precision="I64">
					<dim>-1</dim>
					<dim>-1</dim>
				</port>
			</input>
			<output>
				<port id="1" precision="I32">
					<dim>-1</dim>
					<dim>-1</dim>
				</port>
			</output>
		</layer>
		<layer id="10" name="__module.model.embed_tokens/aten::embedding/Constant" type="Const" version="opset1">
			<data element_type="i32" shape="" offset="352" size="4" />
			<output>
				<port id="0" precision="I32" />
			</output>
		</layer>
		<layer id="11" name="__module.model.embed_tokens/aten::embedding/Gather" type="Gather" version="opset8">
			<data batch_dims="0" />
			<input>
				<port id="0" precision="FP32">
					<dim>32</dim>
					<dim>8</dim>
				</port>
				<port id="1" precision="I32">
					<dim>-1</dim>
					<dim>-1</dim>
				</port>
				<port id="2" precision="I32" />
			</input>
			<output>
				<port id="3" precision="FP32" names="38,71,82,hidden_states.1,inputs_embeds">
					<dim>-1</dim>
					<dim>-1</dim>
					<dim>8</dim>
				</port>
			</output>
		</layer>
		<layer id="12" name="Constant_161265" type="Const" version="opset1">
			<data element_type="f32" shape="1, 1, 1" offset="356" size="4" />
			<output>
				<port id="0" precision="FP32">
					<dim>1</dim>
					<dim>1</dim>
					<dim>1</dim>
				</port>
			</output>
		</layer>
		<layer id="13" name="Constant_161263" type="Const" version="opset1">
			<data element_type="f32" shape="1, 1, 1" offset="360" size="4" />
			<output>
				<port id="0" precision="FP32">
					<dim>1</dim>
					<dim>1</dim>
					<dim>1</dim>
				</port>
			</output>
		</layer>
		<layer id="14" name="__module.model.layers.0.input_layernorm/aten::pow/Power" type="Power" version="opset1">
			<data auto_broadcast="numpy" />
			<input>
				<port id="0" precision="FP32">
					<dim>-1</dim>
					<dim>-1</dim>
					<dim>8</dim>
				</port>
				<port id="1" precision="FP32">
					<dim>1</dim>
					<dim>1</dim>
					<dim>1</dim>
				</port>
			</input>
			<output>
				<port id="2" precision="FP32" names="72">
					<dim>-1</dim>
					<dim>-1</dim>
					<dim>8</dim>
				</port>
			</output>
		</layer>
		<layer id="15" name="Constant_148505" type="Const" version="opset1">
			<data element_type="i64" shape="1" offset="364" size="8" />
			<output>
				<port id="0" precision="I64" names="73">
					<dim>1</dim>
				</port>
			</output>
		</layer>
		<layer id="16" name="__module.model.layers.0.input_layernorm/aten::mean/ReduceMean" type="ReduceMean" version="opset1">
			<data keep_dims="true" />
			<input>
				<port id="0" precision="FP32">
					<dim>-1</dim>
					<dim>-1</dim>
					<dim>8</dim>
				</port>
				<port id="1" precision="I64">
					<dim>1</dim>
				</port>
			</input>
			<output>
				<port id="2" precision="FP32" names="74,variance.1">
					<dim>-1</dim>
					<dim>-1</dim>
					<dim>1</dim>
				</port>
			</output>
		</layer>
		<layer id="17" name="Constant_161264" type="Const" version="opset1">
			<data element_type="f32" shape="1, 1, 1" offset="372" size="4" />
			<output>
				<port id="0" precision="FP32">
					<dim>1</dim>
					<dim>1</dim>
					<dim>1</dim>
				</port>
			</output>
		</layer>
		<layer id="18" name="__module.model.layers.0.input_layernorm/aten::add/Add" type="Add" version="opset1">
			<data auto_broadcast="numpy" />
			<input>
				<port id="0" precision="FP32">
					<dim>-1</dim>
					<dim>-1</dim>
					<dim>1</dim>
				</port>
				<port id="1" precision="FP32">
					<dim>1</dim>
					<dim>1</dim>
					<dim>1</dim>
				</port>
			</input>
			<output>
				<port id="2" precision="FP32" names="75">
					<dim>-1</dim>
					<dim>-1</dim>
					<dim>1</dim>
				</port>
			</output>
		</layer>
		<layer id="19" name="__module.model.layers.0.input_layernorm/aten::rsqrt/Sqrt" type="Sqrt" version="opset1">
			<input>
				<port id="0" precision="FP32">
					<dim>-1</dim>
					<dim>-1</dim>
					<dim>1</dim>
				</port>
			</input>
			<output>
				<port id="1" precision="FP32">
					<dim>-1</dim>
					<dim>-1</dim>
					<dim>1</dim>
				</port>
			</output>
		</layer>
		<layer id="20" name="__module.model.layers.0.input_layernorm/aten::rsqrt/Divide" type="Divide" version="opset1">
			<data auto_broadcast="numpy" m_pythondiv="true" />
			<input>
				<port id="0" precision="FP32">
					<dim>1</dim>
					<dim>1</dim>
					<dim>1</dim>
				</port>
				<port id="1" precision="FP32">
					<dim>-1</dim>
					<dim>-1</dim>
					<dim>1</dim>
				</port>
			</input>
			<output>
				<port id="2" precision="FP32" names="76">
					<dim>-1</dim>
					<dim>-1</dim>
					<dim>1</dim>
				</port>
			</output>
		</layer>
		<layer id="21" name="__module.model.layers.0.input_layernorm/aten::mul/Multiply" type="Multiply" version="opset1">
			<data auto_broadcast="numpy" />
			<input>
				<port id="0" precision="FP32">
					<dim>-1</dim>
					<dim>-1</dim>
					<dim>8</dim>
				</port>
				<port id="1" precision="FP32">
					<dim>-1</dim>
					<dim>-1</dim>
					<dim>1</dim>
				</port>
			</input>
			<output>
				<port id="2" precision="FP32" names="77,78,79,81,hidden_states.3,hidden_states.5,hidden_states.7">
					<dim>-1</dim>
					<dim>-1</dim>
					<dim>8</dim>
				</port>
			</output>
		</layer>
		<layer id="22" name="self.model.layers.0.self_attn.q_proj.weight" type="Const" version="opset1">
			<data element_type="u4" shape="8, 8, 1" offset="376" size="32" />
			<output>
				<port id="0" precision="U4">
					<dim>8</dim>
					<dim>8</dim>
					<dim>1</dim>
				</port>
			</output>
		</layer>
		<layer id="23" name="Convert_163024" type="Convert" version="opset1">
			<data destination_type="f16" />
			<input>
				<port id="0" precision="U4">
					<dim>8</dim>
					<dim>8</dim>
					<dim>1</dim>
				</port>
			</input>
			<output>
				<port id="1" precision="FP16">
					<dim>8</dim>
					<dim>8</dim>
					<dim>1</dim>
				</port>
			</output>
		</layer>
		<layer id="24" name="self.model.layers.0.self_attn.q_proj.weight/zero_point" type="Const" version="opset1">
			<data element_type="u4" shape="8, 8, 1" offset="408" size="32" />
			<output>
				<port id="0" precision="U4">
					<dim>8</dim>
					<dim>8</dim>
					<dim>1</dim>
				</port>
			</output>
		</layer>
		<layer id="25" name="Convert_163026" type="Convert" version="opset1">
			<data destination_type="f16" />
			<input>
				<port id="0" precision="U4">
					<dim>8</dim>
					<dim>8</dim>
					<dim>1</dim>
				</port>
			</input>
			<output>
				<port id="1" precision="FP16">
					<dim>8</dim>
					<dim>8</dim>
					<dim>1</dim>
				</port>
			</output>
		</layer>
		<layer id="26" name="self.model.layers.0.self_attn.q_proj.weight/zero_point/subtract" type="Subtract" version="opset1">
			<data auto_broadcast="numpy" />
			<input>
				<port id="0" precision="FP16">
					<dim>8</dim>
					<dim>8</dim>
					<dim>1</dim>
				</port>
				<port id="1" precision="FP16">
					<dim>8</dim>
					<dim>8</dim>
					<dim>1</dim>
				</port>
			</input>
			<output>
				<port id="2" precision="FP16">
					<dim>8</dim>
					<dim>8</dim>
					<dim>1</dim>
				</port>
			</output>
		</layer>
		<layer id="27" name="self.model.layers.0.self_attn.q_proj.weight/scale" type="Const" version="opset1">
			<data element_type="f16" shape="8, 8, 1" offset="440" size="128" />
			<output>
				<port id="0" precision="FP16">
					<dim>8</dim>
					<dim>8</dim>
					<dim>1</dim>
				</port>
			</output>
		</layer>
		<layer id="28" name="self.model.layers.0.self_attn.q_proj.weight/fq_weights_1" type="Multiply" version="opset1">
			<data auto_broadcast="numpy" />
			<input>
				<port id="0" precision="FP16">
					<dim>8</dim>
					<dim>8</dim>
					<dim>1</dim>
				</port>
				<port id="1" precision="FP16">
					<dim>8</dim>
					<dim>8</dim>
					<dim>1</dim>
				</port>
			</input>
			<output>
				<port id="2" precision="FP16">
					<dim>8</dim>
					<dim>8</dim>
					<dim>1</dim>
				</port>
			</output>
		</layer>
		<layer id="29" name="Constant_163031" type="Const" version="opset1">
			<data element_type="i64" shape="2" offset="568" size="16" />
			<output>
				<port id="0" precision="I64">
					<dim>2</dim>
				</port>
			</output>
		</layer>
		<layer id="30" name="Reshape_163032" type="Reshape" version="opset1">
			<data special_zero="false" />
			<input>
				<port id="0" precision="FP16">
					<dim>8</dim>
					<dim>8</dim>
					<dim>1</dim>
				</port>
				<port id="1" precision="I64">
					<dim>2</dim>
				</port>
			</input>
			<output>
				<port id="2" precision="FP16">
					<dim>8</dim>
					<dim>8</dim>
				</port>
			</output>
		</layer>
		<layer id="31" name="self.model.layers.0.self_attn.q_proj.weight/fq_weights_1/convert" type="Convert" version="opset1">
			<data destination_type="f32" />
			<input>
				<port id="0" precision="FP16">
					<dim>8</dim>
					<dim>8</dim>
				</port>
			</input>
			<output>
				<port id="1" precision="FP32">
					<dim>8</dim>
					<dim>8</dim>
				</port>
			</output>
		</layer>
		<layer id="32" name="__module.model.layers.0.self_attn.q_proj/aten::linear/MatMul" type="MatMul" version="opset1">
			<data transpose_a="false" transpose_b="true" />
			<input>
				<port id="0" precision="FP32">
					<dim>-1</dim>
					<dim>-1</dim>
					<dim>8</dim>
				</port>
				<port id="1" precision="FP32">
					<dim>8</dim>
					<dim>8</dim>
				</port>
			</input>
			<output>
				<port id="2" precision="FP32" names="91,query_states.1">
					<dim>-1</dim>
					<dim>-1</dim>
					<dim>8</dim>
				</port>
			</output>
		</layer>
		<layer id="33" name="Constant_162055" type="Const" version="opset1">
			<data element_type="i64" shape="4" offset="584" size="32" />
			<output>
				<port id="0" precision="I64">
					<dim>4</dim>
				</port>
			</output>
		</layer>
		<layer id="34" name="__module.model.layers.0.self_attn/aten::view/Reshape" type="Reshape" version="opset1">
			<data special_zero="true" />
			<input>
				<port id="0" precision="FP32">
					<dim>-1</dim>
					<dim>-1</dim>
					<dim>8</dim>
				</port>
				<port id="1" precision="I64">
					<dim>4</dim>
				</port>
			</input>
			<output>
				<port id="2" precision="FP32" names="97">
					<dim>-1</dim>
					<dim>-1</dim>
					<dim>2</dim>
					<dim>4</dim>
				</port>
			</output>
		</layer>
		<layer id="35" name="__module.model.layers.0.self_attn/aten::transpose/ScatterElementsUpdate" type="Const" version="opset1">
			<data element_type="i32" shape="4" offset="616" size="16" />
			<output>
				<port id="0" precision="I32">
					<dim>4</dim>
				</port>
			</output>
		</layer>
		<layer id="36" name="__module.model.layers.0.self_attn/aten::transpose/Transpose" type="Transpose" version="opset1">
			<input>
				<port id="0" precision="FP32">
					<dim>-1</dim>
					<dim>-1</dim>
					<dim>2</dim>
					<dim>4</dim>
				</port>
				<port id="1" precision="I32">
					<dim>4</dim>
				</port>
			</input>
			<output>
				<port id="2" precision="FP32" names="98,q.1">
					<dim>-1</dim>
					<dim>2</dim>
					<dim>-1</dim>
					<dim>4</dim>
				</port>
			</output>
		</layer>
		<layer id="37" name="__module.model.layers.0.self_attn.rotary_emb/aten::to/Convert_1" type="Const" version="opset1">
			<data element_type="u4" shape="1, 2, 1, 1" offset="632" size="1" />
			<output>
				<port id="0" precision="U4">
					<dim>1</dim>
					<dim>2</dim>
					<dim>1</dim>
					<dim>1</dim>
				</port>
			</output>
		</layer>
		<layer id="38" name="Convert_163112" type="Convert" version="opset1">
			<data destination_type="f16" />
			<input>
				<port id="0" precision="U4">
					<dim>1</dim>
					<dim>2</dim>
					<dim>1</dim>
					<dim>1</dim>
				</port>
			</input>
			<output>
				<port id="1" precision="FP16">
					<dim>1</dim>
					<dim>2</dim>
					<dim>1</dim>
					<dim>1</dim>
				</port>
			</output>
		</layer>
		<layer id="39" name="__module.model.layers.0.self_attn.rotary_emb/aten::to/Convert_1/zero_point" type="Const" version="opset1">
			<data element_type="u4" shape="1, 2, 1, 1" offset="633" size="1" />
			<output>
				<port id="0" precision="U4">
					<dim>1</dim>
					<dim>2</dim>
					<dim>1</dim>
					<dim>1</dim>
				</port>
			</output>
		</layer>
		<layer id="40" name="Convert_163114" type="Convert" version="opset1">
			<data destination_type="f16" />
			<input>
				<port id="0" precision="U4">
					<dim>1</dim>
					<dim>2</dim>
					<dim>1</dim>
					<dim>1</dim>
				</port>
			</input>
			<output>
				<port id="1" precision="FP16">
					<dim>1</dim>
					<dim>2</dim>
					<dim>1</dim>
					<dim>1</dim>
				</port>
			</output>
		</layer>
		<layer id="41" name="__module.model.layers.0.self_attn.rotary_emb/aten::to/Convert_1/zero_point/subtract" type="Subtract" version="opset1">
			<data auto_broadcast="numpy" />
			<input>
				<port id="0" precision="FP16">
					<dim>1</dim>
					<dim>2</dim>
					<dim>1</dim>
					<dim>1</dim>
				</port>
				<port id="1" precision="FP16">
					<dim>1</dim>
					<dim>2</dim>
					<dim>1</dim>
					<dim>1</dim>
				</port>
			</input>
			<output>
				<port id="2" precision="FP16">
					<dim>1</dim>
					<dim>2</dim>
					<dim>1</dim>
					<dim>1</dim>
				</port>
			</output>
		</layer>
		<layer id="42" name="__module.model.layers.0.self_attn.rotary_emb/aten::to/Convert_1/scale" type="Const" version="opset1">
			<data element_type="f16" shape="1, 2, 1, 1" offset="634" size="4" />
			<output>
				<port id="0" precision="FP16">
					<dim>1</dim>
					<dim>2</dim>
					<dim>1</dim>
					<dim>1</dim>
				</port>
			</output>
		</layer>
		<layer id="43" name="__module.model.layers.0.self_attn.rotary_emb/aten::to/Convert_1/fq_weights_0" type="Multiply" version="opset1">
			<data auto_broadcast="numpy" />
			<input>
				<port id="0" precision="FP16">
					<dim>1</dim>
					<dim>2</dim>
					<dim>1</dim>
					<dim>1</dim>
				</port>
				<port id="1" precision="FP16">
					<dim>1</dim>
					<dim>2</dim>
					<dim>1</dim>
					<dim>1</dim>
				</port>
			</input>
			<output>
				<port id="2" precision="FP16">
					<dim>1</dim>
					<dim>2</dim>
					<dim>1</dim>
					<dim>1</dim>
				</port>
			</output>
		</layer>
		<layer id="44" name="Constant_163119" type="Const" version="opset1">
			<data element_type="i64" shape="3" offset="638" size="24" />
			<output>
				<port id="0" precision="I64">
					<dim>3</dim>
				</port>
			</output>
		</layer>
		<layer id="45" name="Reshape_163120" type="Reshape" version="opset1">
			<data special_zero="false" />
			<input>
				<port id="0" precision="FP16">
					<dim>1</dim>
					<dim>2</dim>
					<dim>1</dim>
					<dim>1</dim>
				</port>
				<port id="1" precision="I64">
					<dim>3</dim>
				</port>
			</input>
			<output>
				<port id="2" precision="FP16">
					<dim>1</dim>
					<dim>2</dim>
					<dim>1</dim>
				</port>
			</output>
		</layer>
		<layer id="46" name="__module.model.layers.0.self_attn.rotary_emb/aten::to/Convert_1/fq_weights_0/convert" type="Convert" version="opset1">
			<data destination_type="f32" />
			<input>
				<port id="0" precision="FP16">
					<dim>1</dim>
					<dim>2</dim>
					<dim>1</dim>
				</port>
			</input>
			<output>
				<port id="1" precision="FP32">
					<dim>1</dim>
					<dim>2</dim>
					<dim>1</dim>
				</port>
			</output>
		</layer>
		<layer id="47" name="26" type="Const" version="opset1">
			<data element_type="i64" shape="" offset="662" size="8" />
			<output>
				<port id="0" precision="I64" names="26" />
			</output>
		</layer>
		<layer id="48" name="__module.model.layers.0.self_attn/aten::size/ShapeOf" type="ShapeOf" version="opset3">
			<data output_type="i64" />
			<input>
				<port id="0" precision="FP32">
					<dim>-1</dim>
					<dim>-1</dim>
					<dim>8</dim>
				</port>
			</input>
			<output>
				<port id="1" precision="I64">
					<dim>3</dim>
				</port>
			</output>
		</layer>
		<layer id="49" name="Constant_161763" type="Const" version="opset1">
			<data element_type="i64" shape="" offset="670" size="8" />
			<output>
				<port id="0" precision="I64" />
			</output>
		</layer>
		<layer id="50" name="Constant_161764" type="Const" version="opset1">
			<data element_type="i64" shape="" offset="662" size="8" />
			<output>
				<port id="0" precision="I64" />
			</output>
		</layer>
		<layer id="51" name="Gather_161765" type="Gather" version="opset8">
			<data batch_dims="0" />
			<input>
				<port id="0" precision="I64">
					<dim>3</dim>
				</port>
				<port id="1" precision="I64" />
				<port id="2" precision="I64" />
			</input>
			<output>
				<port id="3" precision="I64" names="39,41,45,47" />
			</output>
		</layer>
		<layer id="52" name="__module.model/aten::arange/Constant" type="Const" version="opset1">
			<data element_type="i32" shape="" offset="678" size="4" />
			<output>
				<port id="0" precision="I32" />
			</output>
		</layer>
		<layer id="53" name="__module.model/aten::arange/Range" type="Range" version="opset4">
			<data output_type="f32" />
			<input>
				<port id="0" precision="I64" />
				<port id="1" precision="I64" />
				<port id="2" precision="I32" />
			</input>
			<output>
				<port id="3" precision="FP32" names="43,cache_position">
					<dim>-1</dim>
				</port>
			</output>
		</layer>
		<layer id="54" name="__module.model/aten::unsqueeze/Unsqueeze" type="Unsqueeze" version="opset1">
			<input>
				<port id="0" precision="FP32">
					<dim>-1</dim>
				</port>
				<port id="1" precision="I64" />
			</input>
			<output>
				<port id="2" precision="FP32" names="113,288,44,position_ids">
					<dim>1</dim>
					<dim>-1</dim>
				</port>
			</output>
		</layer>
		<layer id="55" name="28" type="Const" version="opset1">
			<data element_type="i64" shape="" offset="670" size="8" />
			<output>
				<port id="0" precision="I64" names="28" />
			</output>
		</layer>
		<layer id="56" name="__module.model.layers.0.self_attn.rotary_emb/aten::unsqueeze/Unsqueeze" type="Unsqueeze" version="opset1">
			<input>
				<port id="0" precision="FP32">
					<dim>1</dim>
					<dim>-1</dim>
				</port>
				<port id="1" precision="I64" />
			</input>
			<output>
				<port id="2" precision="FP32" names="114,115,116,118,289,290,291,293,position_ids_expanded,position_ids_expanded.1,position_ids_expanded.3,position_ids_expanded.5">
					<dim>1</dim>
					<dim>1</dim>
					<dim>-1</dim>
				</port>
			</output>
		</layer>
		<layer id="57" name="__module.model.layers.0.self_attn.rotary_emb/aten::matmul/MatMul" type="MatMul" version="opset1">
			<data transpose_a="false" transpose_b="false" />
			<input>
				<port id="0" precision="FP32">
					<dim>1</dim>
					<dim>2</dim>
					<dim>1</dim>
				</port>
				<port id="1" precision="FP32">
					<dim>1</dim>
					<dim>1</dim>
					<dim>-1</dim>
				</port>
			</input>
			<output>
				<port id="2" precision="FP32" names="119,294">
					<dim>1</dim>
					<dim>2</dim>
					<dim>-1</dim>
				</port>
			</output>
		</layer>
		<layer id="58" name="__module.model.layers.0.self_attn.rotary_emb/aten::transpose/ScatterElementsUpdate" type="Const" version="opset1">
			<data element_type="i32" shape="3" offset="682" size="12" />
			<output>
				<port id="0" precision="I32">
					<dim>3</dim>
				</port>
			</output>
		</layer>
		<layer id="59" name="__module.model.layers.0.self_attn.rotary_emb/aten::transpose/Transpose" type="Transpose" version="opset1">
			<input>
				<port id="0" precision="FP32">
					<dim>1</dim>
					<dim>2</dim>
					<dim>-1</dim>
				</port>
				<port id="1" precision="I32">
					<dim>3</dim>
				</port>
			</input>
			<output>
				<port id="2" precision="FP32" names="120,295">
					<dim>1</dim>
					<dim>-1</dim>
					<dim>2</dim>
				</port>
			</output>
		</layer>
		<layer id="60" name="__module.model.layers.0.self_attn.rotary_emb/aten::cat/Concat" type="Concat" version="opset1">
			<data axis="-1" />
			<input>
				<port id="0" precision="FP32">
					<dim>1</dim>
					<dim>-1</dim>
					<dim>2</dim>
				</port>
				<port id="1" precision="FP32">
					<dim>1</dim>
					<dim>-1</dim>
					<dim>2</dim>
				</port>
			</input>
			<output>
				<port id="2" precision="FP32" names="122,297,emb,emb.1">
					<dim>1</dim>
					<dim>-1</dim>
					<dim>4</dim>
				</port>
			</output>
		</layer>
		<layer id="61" name="__module.model.layers.0.self_attn.rotary_emb/aten::cos/Cos" type="Cos" version="opset1">
			<input>
				<port id="0" precision="FP32">
					<dim>1</dim>
					<dim>-1</dim>
					<dim>4</dim>
				</port>
			</input>
			<output>
				<port id="1" precision="FP32" names="123,125,128,298,300,303,cos.1,cos.3,cos.7,cos.9">
					<dim>1</dim>
					<dim>-1</dim>
					<dim>4</dim>
				</port>
			</output>
		</layer>
		<layer id="62" name="__module.model.layers.0.self_attn/aten::unsqueeze/Unsqueeze" type="Unsqueeze" version="opset1">
			<input>
				<port id="0" precision="FP32">
					<dim>1</dim>
					<dim>-1</dim>
					<dim>4</dim>
				</port>
				<port id="1" precision="I64" />
			</input>
			<output>
				<port id="2" precision="FP32" names="130,305,cos,cos.5">
					<dim>1</dim>
					<dim>1</dim>
					<dim>-1</dim>
					<dim>4</dim>
				</port>
			</output>
		</layer>
		<layer id="63" name="__module.model.layers.0.self_attn/aten::mul/Multiply" type="Multiply" version="opset1">
			<data auto_broadcast="numpy" />
			<input>
				<port id="0" precision="FP32">
					<dim>-1</dim>
					<dim>2</dim>
					<dim>-1</dim>
					<dim>4</dim>
				</port>
				<port id="1" precision="FP32">
					<dim>1</dim>
					<dim>1</dim>
					<dim>-1</dim>
					<dim>4</dim>
				</port>
			</input>
			<output>
				<port id="2" precision="FP32" names="132">
					<dim>-1</dim>
					<dim>2</dim>
					<dim>-1</dim>
					<dim>4</dim>
				</port>
			</output>
		</layer>
		<layer id="64" name="__module.model.layers.0.self_attn/aten::size/ShapeOf_3" type="ShapeOf" version="opset3">
			<data output_type="i64" />
			<input>
				<port id="0" precision="FP32">
					<dim>-1</dim>
					<dim>2</dim>
					<dim>-1</dim>
					<dim>4</dim>
				</port>
			</input>
			<output>
				<port id="1" precision="I64">
					<dim>4</dim>
				</port>
			</output>
		</layer>
		<layer id="65" name="18" type="Const" version="opset1">
			<data element_type="i64" shape="" offset="694" size="8" />
			<output>
				<port id="0" precision="I64" names="18" />
			</output>
		</layer>
		<layer id="66" name="__module.model.layers.0.self_attn/aten::size/Constant_3" type="Const" version="opset1">
			<data element_type="i32" shape="" offset="352" size="4" />
			<output>
				<port id="0" precision="I32" />
			</output>
		</layer>
		<layer id="67" name="__module.model.layers.0.self_attn/aten::size/Gather_3" type="Gather" version="opset8">
			<data batch_dims="0" />
			<input>
				<port id="0" precision="I64">
					<dim>4</dim>
				</port>
				<port id="1" precision="I64" />
				<port id="2" precision="I32" />
			</input>
			<output>
				<port id="3" precision="I64" names="133,138" />
			</output>
		</layer>
		<layer id="68" name="Constant_148366" type="Const" version="opset1">
			<data element_type="i64" shape="" offset="702" size="8" />
			<output>
				<port id="0" precision="I64" names="16" />
			</output>
		</layer>
		<layer id="69" name="__module.model.layers.0.self_attn/aten::floor_divide/Divide_1" type="Divide" version="opset1">
			<data auto_broadcast="numpy" m_pythondiv="true" />
			<input>
				<port id="0" precision="I64" />
				<port id="1" precision="I64" />
			</input>
			<output>
				<port id="2" precision="I64" />
			</output>
		</layer>
		<layer id="70" name="__module.model.layers.0.self_attn/aten::floor_divide/Floor_1" type="Floor" version="opset1">
			<input>
				<port id="0" precision="I64" />
			</input>
			<output>
				<port id="1" precision="I64" names="135,136,140,141" />
			</output>
		</layer>
		<layer id="71" name="Constant_161767" type="Const" version="opset1">
			<data element_type="i64" shape="1" offset="670" size="8" />
			<output>
				<port id="0" precision="I64">
					<dim>1</dim>
				</port>
			</output>
		</layer>
		<layer id="72" name="Reshape_161768" type="Reshape" version="opset1">
			<data special_zero="false" />
			<input>
				<port id="0" precision="I64" />
				<port id="1" precision="I64">
					<dim>1</dim>
				</port>
			</input>
			<output>
				<port id="2" precision="I64">
					<dim>1</dim>
				</port>
			</output>
		</layer>
		<layer id="73" name="__module.model.layers.0.self_attn/aten::slice/Reshape_1" type="Const" version="opset1">
			<data element_type="i64" shape="1" offset="710" size="8" />
			<output>
				<port id="0" precision="I64">
					<dim>1</dim>
				</port>
			</output>
		</layer>
		<layer id="74" name="__module.model.layers.0.self_attn/aten::slice/Reshape_2" type="Const" version="opset1">
			<data element_type="i64" shape="1" offset="670" size="8" />
			<output>
				<port id="0" precision="I64">
					<dim>1</dim>
				</port>
			</output>
		</layer>
		<layer id="75" name="__module.model.layers.0.self_attn/aten::slice/Reshape_3" type="Const" version="opset1">
			<data element_type="i64" shape="1" offset="694" size="8" />
			<output>
				<port id="0" precision="I64">
					<dim>1</dim>
				</port>
			</output>
		</layer>
		<layer id="76" name="__module.model.layers.0.self_attn/aten::slice/Slice" type="Slice" version="opset8">
			<input>
				<port id="0" precision="FP32">
					<dim>-1</dim>
					<dim>2</dim>
					<dim>-1</dim>
					<dim>4</dim>
				</port>
				<port id="1" precision="I64">
					<dim>1</dim>
				</port>
				<port id="2" precision="I64">
					<dim>1</dim>
				</port>
				<port id="3" precision="I64">
					<dim>1</dim>
				</port>
				<port id="4" precision="I64">
					<dim>1</dim>
				</port>
			</input>
			<output>
				<port id="5" precision="FP32" names="142,x2.1">
					<dim>-1</dim>
					<dim>2</dim>
					<dim>-1</dim>
					<dim>2</dim>
				</port>
			</output>
		</layer>
		<layer id="77" name="Constant_161266" type="Const" version="opset1">
			<data element_type="f32" shape="1, 1, 1, 1" offset="718" size="4" />
			<output>
				<port id="0" precision="FP32">
					<dim>1</dim>
					<dim>1</dim>
					<dim>1</dim>
					<dim>1</dim>
				</port>
			</output>
		</layer>
		<layer id="78" name="__module.model.layers.0.self_attn/aten::neg/Multiply" type="Multiply" version="opset1">
			<data auto_broadcast="numpy" />
			<input>
				<port id="0" precision="FP32">
					<dim>-1</dim>
					<dim>2</dim>
					<dim>-1</dim>
					<dim>2</dim>
				</port>
				<port id="1" precision="FP32">
					<dim>1</dim>
					<dim>1</dim>
					<dim>1</dim>
					<dim>1</dim>
				</port>
			</input>
			<output>
				<port id="2" precision="FP32" names="143">
					<dim>-1</dim>
					<dim>2</dim>
					<dim>-1</dim>
					<dim>2</dim>
				</port>
			</output>
		</layer>
		<layer id="79" name="__module.model.layers.0.self_attn/aten::slice/Reshape_4" type="Const" version="opset1">
			<data element_type="i64" shape="1" offset="662" size="8" />
			<output>
				<port id="0" precision="I64">
					<dim>1</dim>
				</port>
			</output>
		</layer>
		<layer id="80" name="__module.model.layers.0.self_attn/aten::slice/Reshape_6" type="Const" version="opset1">
			<data element_type="i64" shape="1" offset="670" size="8" />
			<output>
				<port id="0" precision="I64">
					<dim>1</dim>
				</port>
			</output>
		</layer>
		<layer id="81" name="__module.model.layers.0.self_attn/aten::slice/Reshape_7" type="Const" version="opset1">
			<data element_type="i64" shape="1" offset="694" size="8" />
			<output>
				<port id="0" precision="I64">
					<dim>1</dim>
				</port>
			</output>
		</layer>
		<layer id="82" name="__module.model.layers.0.self_attn/aten::slice/Slice_1" type="Slice" version="opset8">
			<input>
				<port id="0" precision="FP32">
					<dim>-1</dim>
					<dim>2</dim>
					<dim>-1</dim>
					<dim>4</dim>
				</port>
				<port id="1" precision="I64">
					<dim>1</dim>
				</port>
				<port id="2" precision="I64">
					<dim>1</dim>
				</port>
				<port id="3" precision="I64">
					<dim>1</dim>
				</port>
				<port id="4" precision="I64">
					<dim>1</dim>
				</port>
			</input>
			<output>
				<port id="5" precision="FP32" names="137">
					<dim>-1</dim>
					<dim>2</dim>
					<dim>-1</dim>
					<dim>2</dim>
				</port>
			</output>
		</layer>
		<layer id="83" name="__module.model.layers.0.self_attn/aten::cat/Concat" type="Concat" version="opset1">
			<data axis="-1" />
			<input>
				<port id="0" precision="FP32">
					<dim>-1</dim>
					<dim>2</dim>
					<dim>-1</dim>
					<dim>2</dim>
				</port>
				<port id="1" precision="FP32">
					<dim>-1</dim>
					<dim>2</dim>
					<dim>-1</dim>
					<dim>2</dim>
				</port>
			</input>
			<output>
				<port id="2" precision="FP32" names="145">
					<dim>-1</dim>
					<dim>2</dim>
					<dim>-1</dim>
					<dim>4</dim>
				</port>
			</output>
		</layer>
		<layer id="84" name="__module.model.layers.0.self_attn.rotary_emb/aten::sin/Sin" type="Sin" version="opset1">
			<input>
				<port id="0" precision="FP32">
					<dim>1</dim>
					<dim>-1</dim>
					<dim>4</dim>
				</port>
			</input>
			<output>
				<port id="1" precision="FP32" names="124,126,129,299,301,304,sin.1,sin.3,sin.7,sin.9">
					<dim>1</dim>
					<dim>-1</dim>
					<dim>4</dim>
				</port>
			</output>
		</layer>
		<layer id="85" name="__module.model.layers.0.self_attn/aten::unsqueeze/Unsqueeze_1" type="Unsqueeze" version="opset1">
			<input>
				<port id="0" precision="FP32">
					<dim>1</dim>
					<dim>-1</dim>
					<dim>4</dim>
				</port>
				<port id="1" precision="I64" />
			</input>
			<output>
				<port id="2" precision="FP32" names="131,306,sin,sin.5">
					<dim>1</dim>
					<dim>1</dim>
					<dim>-1</dim>
					<dim>4</dim>
				</port>
			</output>
		</layer>
		<layer id="86" name="__module.model.layers.0.self_attn/aten::mul/Multiply_1" type="Multiply" version="opset1">
			<data auto_broadcast="numpy" />
			<input>
				<port id="0" precision="FP32">
					<dim>-1</dim>
					<dim>2</dim>
					<dim>-1</dim>
					<dim>4</dim>
				</port>
				<port id="1" precision="FP32">
					<dim>1</dim>
					<dim>1</dim>
					<dim>-1</dim>
					<dim>4</dim>
				</port>
			</input>
			<output>
				<port id="2" precision="FP32" names="146">
					<dim>-1</dim>
					<dim>2</dim>
					<dim>-1</dim>
					<dim>4</dim>
				</port>
			</output>
		</layer>
		<layer id="87" name="__module.model.layers.0.self_attn/aten::add/Add" type="Add" version="opset1">
			<data auto_broadcast="numpy" />
			<input>
				<port id="0" precision="FP32">
					<dim>-1</dim>
					<dim>2</dim>
					<dim>-1</dim>
					<dim>4</dim>
				</port>
				<port id="1" precision="FP32">
					<dim>-1</dim>
					<dim>2</dim>
					<dim>-1</dim>
					<dim>4</dim>
				</port>
			</input>
			<output>
				<port id="2" precision="FP32" names="147">
					<dim>-1</dim>
					<dim>2</dim>
					<dim>-1</dim>
					<dim>4</dim>
				</port>
			</output>
		</layer>
		<layer id="88" name="self.model.layers.0.self_attn.k_proj.weight" type="Const" version="opset1">
			<data element_type="u4" shape="4, 8, 1" offset="722" size="16" />
			<output>
				<port id="0" precision="U4">
					<dim>4</dim>
					<dim>8</dim>
					<dim>1</dim>
				</port>
			</output>
		</layer>
		<layer id="89" name="Convert_163079" type="Convert" version="opset1">
			<data destination_type="f16" />
			<input>
				<port id="0" precision="U4">
					<dim>4</dim>
					<dim>8</dim>
					<dim>1</dim>
				</port>
			</input>
			<output>
				<port id="1" precision="FP16">
					<dim>4</dim>
					<dim>8</dim>
					<dim>1</dim>
				</port>
			</output>
		</layer>
		<layer id="90" name="self.model.layers.0.self_attn.k_proj.weight/zero_point" type="Const" version="opset1">
			<data element_type="u4" shape="4, 8, 1" offset="738" size="16" />
			<output>
				<port id="0" precision="U4">
					<dim>4</dim>
					<dim>8</dim>
					<dim>1</dim>
				</port>
			</output>
		</layer>
		<layer id="91" name="Convert_163081" type="Convert" version="opset1">
			<data destination_type="f16" />
			<input>
				<port id="0" precision="U4">
					<dim>4</dim>
					<dim>8</dim>
					<dim>1</dim>
				</port>
			</input>
			<output>
				<port id="1" precision="FP16">
					<dim>4</dim>
					<dim>8</dim>
					<dim>1</dim>
				</port>
			</output>
		</layer>
		<layer id="92" name="self.model.layers.0.self_attn.k_proj.weight/zero_point/subtract" type="Subtract" version="opset1">
			<data auto_broadcast="numpy" />
			<input>
				<port id="0" precision="FP16">
					<dim>4</dim>
					<dim>8</dim>
					<dim>1</dim>
				</port>
				<port id="1" precision="FP16">
					<dim>4</dim>
					<dim>8</dim>
					<dim>1</dim>
				</port>
			</input>
			<output>
				<port id="2" precision="FP16">
					<dim>4</dim>
					<dim>8</dim>
					<dim>1</dim>
				</port>
			</output>
		</layer>
		<layer id="93" name="self.model.layers.0.self_attn.k_proj.weight/scale" type="Const" version="opset1">
			<data element_type="f16" shape="4, 8, 1" offset="754" size="64" />
			<output>
				<port id="0" precision="FP16">
					<dim>4</dim>
					<dim>8</dim>
					<dim>1</dim>
				</port>
			</output>
		</layer>
		<layer id="94" name="self.model.layers.0.self_attn.k_proj.weight/fq_weights_1" type="Multiply" version="opset1">
			<data auto_broadcast="numpy" />
			<input>
				<port id="0" precision="FP16">
					<dim>4</dim>
					<dim>8</dim>
					<dim>1</dim>
				</port>
				<port id="1" precision="FP16">
					<dim>4</dim>
					<dim>8</dim>
					<dim>1</dim>
				</port>
			</input>
			<output>
				<port id="2" precision="FP16">
					<dim>4</dim>
					<dim>8</dim>
					<dim>1</dim>
				</port>
			</output>
		</layer>
		<layer id="95" name="Constant_163086" type="Const" version="opset1">
			<data element_type="i64" shape="2" offset="818" size="16" />
			<output>
				<port id="0" precision="I64">
					<dim>2</dim>
				</port>
			</output>
		</layer>
		<layer id="96" name="Reshape_163087" type="Reshape" version="opset1">
			<data special_zero="false" />
			<input>
				<port id="0" precision="FP16">
					<dim>4</dim>
					<dim>8</dim>
					<dim>1</dim>
				</port>
				<port id="1" precision="I64">
					<dim>2</dim>
				</port>
			</input>
			<output>
				<port id="2" precision="FP16">
					<dim>4</dim>
					<dim>8</dim>
				</port>
			</output>
		</layer>
		<layer id="97" name="self.model.layers.0.self_attn.k_proj.weight/fq_weights_1/convert" type="Convert" version="opset1">
			<data destination_type="f32" />
			<input>
				<port id="0" precision="FP16">
					<dim>4</dim>
					<dim>8</dim>
				</port>
			</input>
			<output>
				<port id="1" precision="FP32">
					<dim>4</dim>
					<dim>8</dim>
				</port>
			</output>
		</layer>
		<layer id="98" name="__module.model.layers.0.self_attn.k_proj/aten::linear/MatMul" type="MatMul" version="opset1">
			<data transpose_a="false" transpose_b="true" />
			<input>
				<port id="0" precision="FP32">
					<dim>-1</dim>
					<dim>-1</dim>
					<dim>8</dim>
				</port>
				<port id="1" precision="FP32">
					<dim>4</dim>
					<dim>8</dim>
				</port>
			</input>
			<output>
				<port id="2" precision="FP32" names="93,key_states.1">
					<dim>-1</dim>
					<dim>-1</dim>
					<dim>4</dim>
				</port>
			</output>
		</layer>
		<layer id="99" name="Constant_162056" type="Const" version="opset1">
			<data element_type="i64" shape="4" offset="834" size="32" />
			<output>
				<port id="0" precision="I64">
					<dim>4</dim>
				</port>
			</output>
		</layer>
		<layer id="100" name="__module.model.layers.0.self_attn/aten::view/Reshape_1" type="Reshape" version="opset1">
			<data special_zero="true" />
			<input>
				<port id="0" precision="FP32">
					<dim>-1</dim>
					<dim>-1</dim>
					<dim>4</dim>
				</port>
				<port id="1" precision="I64">
					<dim>4</dim>
				</port>
			</input>
			<output>
				<port id="2" precision="FP32" names="100">
					<dim>-1</dim>
					<dim>-1</dim>
					<dim>1</dim>
					<dim>4</dim>
				</port>
			</output>
		</layer>
		<layer id="101" name="Constant_161050" type="Const" version="opset1">
			<data element_type="i64" shape="4" offset="866" size="32" />
			<output>
				<port id="0" precision="I64">
					<dim>4</dim>
				</port>
			</output>
		</layer>
		<layer id="102" name="__module.model.layers.0.self_attn/aten::transpose/Transpose_1" type="Reshape" version="opset1">
			<data special_zero="true" />
			<input>
				<port id="0" precision="FP32">
					<dim>-1</dim>
					<dim>-1</dim>
					<dim>1</dim>
					<dim>4</dim>
				</port>
				<port id="1" precision="I64">
					<dim>4</dim>
				</port>
			</input>
			<output>
				<port id="2" precision="FP32" names="101,k.1">
					<dim>-1</dim>
					<dim>1</dim>
					<dim>-1</dim>
					<dim>4</dim>
				</port>
			</output>
		</layer>
		<layer id="103" name="__module.model.layers.0.self_attn/aten::mul/Multiply_2" type="Multiply" version="opset1">
			<data auto_broadcast="numpy" />
			<input>
				<port id="0" precision="FP32">
					<dim>-1</dim>
					<dim>1</dim>
					<dim>-1</dim>
					<dim>4</dim>
				</port>
				<port id="1" precision="FP32">
					<dim>1</dim>
					<dim>1</dim>
					<dim>-1</dim>
					<dim>4</dim>
				</port>
			</input>
			<output>
				<port id="2" precision="FP32" names="148">
					<dim>-1</dim>
					<dim>1</dim>
					<dim>-1</dim>
					<dim>4</dim>
				</port>
			</output>
		</layer>
		<layer id="104" name="__module.model.layers.0.self_attn/aten::size/ShapeOf_5" type="ShapeOf" version="opset3">
			<data output_type="i64" />
			<input>
				<port id="0" precision="FP32">
					<dim>-1</dim>
					<dim>1</dim>
					<dim>-1</dim>
					<dim>4</dim>
				</port>
			</input>
			<output>
				<port id="1" precision="I64">
					<dim>4</dim>
				</port>
			</output>
		</layer>
		<layer id="105" name="__module.model.layers.0.self_attn/aten::size/Constant_5" type="Const" version="opset1">
			<data element_type="i32" shape="" offset="352" size="4" />
			<output>
				<port id="0" precision="I32" />
			</output>
		</layer>
		<layer id="106" name="__module.model.layers.0.self_attn/aten::size/Gather_5" type="Gather" version="opset8">
			<data batch_dims="0" />
			<input>
				<port id="0" precision="I64">
					<dim>4</dim>
				</port>
				<port id="1" precision="I64" />
				<port id="2" precision="I32" />
			</input>
			<output>
				<port id="3" precision="I64" names="149,154" />
			</output>
		</layer>
		<layer id="107" name="__module.model.layers.0.self_attn/aten::floor_divide/Divide_3" type="Divide" version="opset1">
			<data auto_broadcast="numpy" m_pythondiv="true" />
			<input>
				<port id="0" precision="I64" />
				<port id="1" precision="I64" />
			</input>
			<output>
				<port id="2" precision="I64" />
			</output>
		</layer>
		<layer id="108" name="__module.model.layers.0.self_attn/aten::floor_divide/Floor_3" type="Floor" version="opset1">
			<input>
				<port id="0" precision="I64" />
			</input>
			<output>
				<port id="1" precision="I64" names="151,152,156,157" />
			</output>
		</layer>
		<layer id="109" name="Constant_161721" type="Const" version="opset1">
			<data element_type="i64" shape="1" offset="670" size="8" />
			<output>
				<port id="0" precision="I64">
					<dim>1</dim>
				</port>
			</output>
		</layer>
		<layer id="110" name="Reshape_161722" type="Reshape" version="opset1">
			<data special_zero="false" />
			<input>
				<port id="0" precision="I64" />
				<port id="1" precision="I64">
					<dim>1</dim>
				</port>
			</input>
			<output>
				<port id="2" precision="I64">
					<dim>1</dim>
				</port>
			</output>
		</layer>
		<layer id="111" name="__module.model.layers.0.self_attn/aten::slice/Reshape_9" type="Const" version="opset1">
			<data element_type="i64" shape="1" offset="710" size="8" />
			<output>
				<port id="0" precision="I64">
					<dim>1</dim>
				</port>
			</output>
		</layer>
		<layer id="112" name="__module.model.layers.0.self_attn/aten::slice/Reshape_10" type="Const" version="opset1">
			<data element_type="i64" shape="1" offset="670" size="8" />
			<output>
				<port id="0" precision="I64">
					<dim>1</dim>
				</port>
			</output>
		</layer>
		<layer id="113" name="__module.model.layers.0.self_attn/aten::slice/Reshape_11" type="Const" version="opset1">
			<data element_type="i64" shape="1" offset="694" size="8" />
			<output>
				<port id="0" precision="I64">
					<dim>1</dim>
				</port>
			</output>
		</layer>
		<layer id="114" name="__module.model.layers.0.self_attn/aten::slice/Slice_2" type="Slice" version="opset8">
			<input>
				<port id="0" precision="FP32">
					<dim>-1</dim>
					<dim>1</dim>
					<dim>-1</dim>
					<dim>4</dim>
				</port>
				<port id="1" precision="I64">
					<dim>1</dim>
				</port>
				<port id="2" precision="I64">
					<dim>1</dim>
				</port>
				<port id="3" precision="I64">
					<dim>1</dim>
				</port>
				<port id="4" precision="I64">
					<dim>1</dim>
				</port>
			</input>
			<output>
				<port id="5" precision="FP32" names="158,x2.3">
					<dim>-1</dim>
					<dim>1</dim>
					<dim>-1</dim>
					<dim>2</dim>
				</port>
			</output>
		</layer>
		<layer id="115" name="Constant_161267" type="Const" version="opset1">
			<data element_type="f32" shape="1, 1, 1, 1" offset="718" size="4" />
			<output>
				<port id="0" precision="FP32">
					<dim>1</dim>
					<dim>1</dim>
					<dim>1</dim>
					<dim>1</dim>
				</port>
			</output>
		</layer>
		<layer id="116" name="__module.model.layers.0.self_attn/aten::neg/Multiply_1" type="Multiply" version="opset1">
			<data auto_broadcast="numpy" />
			<input>
				<port id="0" precision="FP32">
					<dim>-1</dim>
					<dim>1</dim>
					<dim>-1</dim>
					<dim>2</dim>
				</port>
				<port id="1" precision="FP32">
					<dim>1</dim>
					<dim>1</dim>
					<dim>1</dim>
					<dim>1</dim>
				</port>
			</input>
			<output>
				<port id="2" precision="FP32" names="159">
					<dim>-1</dim>
					<dim>1</dim>
					<dim>-1</dim>
					<dim>2</dim>
				</port>
			</output>
		</layer>
		<layer id="117" name="__module.model.layers.0.self_attn/aten::slice/Reshape_12" type="Const" version="opset1">
			<data element_type="i64" shape="1" offset="662" size="8" />
			<output>
				<port id="0" precision="I64">
					<dim>1</dim>
				</port>
			</output>
		</layer>
		<layer id="118" name="__module.model.layers.0.self_attn/aten::slice/Reshape_14" type="Const" version="opset1">
			<data element_type="i64" shape="1" offset="670" size="8" />
			<output>
				<port id="0" precision="I64">
					<dim>1</dim>
				</port>
			</output>
		</layer>
		<layer id="119" name="__module.model.layers.0.self_attn/aten::slice/Reshape_15" type="Const" version="opset1">
			<data element_type="i64" shape="1" offset="694" size="8" />
			<output>
				<port id="0" precision="I64">
					<dim>1</dim>
				</port>
			</output>
		</layer>
		<layer id="120" name="__module.model.layers.0.self_attn/aten::slice/Slice_3" type="Slice" version="opset8">
			<input>
				<port id="0" precision="FP32">
					<dim>-1</dim>
					<dim>1</dim>
					<dim>-1</dim>
					<dim>4</dim>
				</port>
				<port id="1" precision="I64">
					<dim>1</dim>
				</port>
				<port id="2" precision="I64">
					<dim>1</dim>
				</port>
				<port id="3" precision="I64">
					<dim>1</dim>
				</port>
				<port id="4" precision="I64">
					<dim>1</dim>
				</port>
			</input>
			<output>
				<port id="5" precision="FP32" names="153">
					<dim>-1</dim>
					<dim>1</dim>
					<dim>-1</dim>
					<dim>2</dim>
				</port>
			</output>
		</layer>
		<layer id="121" name="__module.model.layers.0.self_attn/aten::cat/Concat_1" type="Concat" version="opset1">
			<data axis="-1" />
			<input>
				<port id="0" precision="FP32">
					<dim>-1</dim>
					<dim>1</dim>
					<dim>-1</dim>
					<dim>2</dim>
				</port>
				<port id="1" precision="FP32">
					<dim>-1</dim>
					<dim>1</dim>
					<dim>-1</dim>
					<dim>2</dim>
				</port>
			</input>
			<output>
				<port id="2" precision="FP32" names="161">
					<dim>-1</dim>
					<dim>1</dim>
					<dim>-1</dim>
					<dim>4</dim>
				</port>
			</output>
		</layer>
		<layer id="122" name="__module.model.layers.0.self_attn/aten::mul/Multiply_3" type="Multiply" version="opset1">
			<data auto_broadcast="numpy" />
			<input>
				<port id="0" precision="FP32">
					<dim>-1</dim>
					<dim>1</dim>
					<dim>-1</dim>
					<dim>4</dim>
				</port>
				<port id="1" precision="FP32">
					<dim>1</dim>
					<dim>1</dim>
					<dim>-1</dim>
					<dim>4</dim>
				</port>
			</input>
			<output>
				<port id="2" precision="FP32" names="162">
					<dim>-1</dim>
					<dim>1</dim>
					<dim>-1</dim>
					<dim>4</dim>
				</port>
			</output>
		</layer>
		<layer id="123" name="__module.model.layers.0.self_attn/aten::add/Add_1" type="Add" version="opset1">
			<data auto_broadcast="numpy" />
			<input>
				<port id="0" precision="FP32">
					<dim>-1</dim>
					<dim>1</dim>
					<dim>-1</dim>
					<dim>4</dim>
				</port>
				<port id="1" precision="FP32">
					<dim>-1</dim>
					<dim>1</dim>
					<dim>-1</dim>
					<dim>4</dim>
				</port>
			</input>
			<output>
				<port id="2" precision="FP32" names="163,169,170,hidden_states.9">
					<dim>-1</dim>
					<dim>1</dim>
					<dim>-1</dim>
					<dim>4</dim>
				</port>
			</output>
		</layer>
		<layer id="124" name="20" type="Const" version="opset1">
			<data element_type="i64" shape="" offset="702" size="8" />
			<output>
				<port id="0" precision="I64" names="20" />
			</output>
		</layer>
		<layer id="125" name="__module.model.layers.0.self_attn/aten::unsqueeze/Unsqueeze_2" type="Unsqueeze" version="opset1">
			<input>
				<port id="0" precision="FP32">
					<dim>-1</dim>
					<dim>1</dim>
					<dim>-1</dim>
					<dim>4</dim>
				</port>
				<port id="1" precision="I64" />
			</input>
			<output>
				<port id="2" precision="FP32" names="171,172,173">
					<dim>-1</dim>
					<dim>1</dim>
					<dim>1</dim>
					<dim>-1</dim>
					<dim>4</dim>
				</port>
			</output>
		</layer>
		<layer id="126" name="Constant_161809" type="Const" version="opset1">
			<data element_type="i64" shape="1" offset="662" size="8" />
			<output>
				<port id="0" precision="I64">
					<dim>1</dim>
				</port>
			</output>
		</layer>
		<layer id="127" name="Constant_161810" type="Const" version="opset1">
			<data element_type="i64" shape="" offset="662" size="8" />
			<output>
				<port id="0" precision="I64" />
			</output>
		</layer>
		<layer id="128" name="Gather_161811" type="Gather" version="opset8">
			<data batch_dims="0" />
			<input>
				<port id="0" precision="I64">
					<dim>3</dim>
				</port>
				<port id="1" precision="I64">
					<dim>1</dim>
				</port>
				<port id="2" precision="I64" />
			</input>
			<output>
				<port id="3" precision="I64" names="164,180,339,355,63">
					<dim>1</dim>
				</port>
			</output>
		</layer>
		<layer id="129" name="__module.model.layers.0.self_attn/aten::size/ShapeOf_6" type="ShapeOf" version="opset3">
			<data output_type="i64" />
			<input>
				<port id="0" precision="FP32">
					<dim>-1</dim>
					<dim>1</dim>
					<dim>-1</dim>
					<dim>4</dim>
				</port>
			</input>
			<output>
				<port id="1" precision="I64">
					<dim>4</dim>
				</port>
			</output>
		</layer>
		<layer id="130" name="Constant_162162" type="Const" version="opset1">
			<data element_type="i64" shape="1" offset="670" size="8" />
			<output>
				<port id="0" precision="I64">
					<dim>1</dim>
				</port>
			</output>
		</layer>
		<layer id="131" name="__module.model.layers.0.self_attn/aten::size/Constant_7" type="Const" version="opset1">
			<data element_type="i32" shape="" offset="352" size="4" />
			<output>
				<port id="0" precision="I32" />
			</output>
		</layer>
		<layer id="132" name="__module.model.layers.0.self_attn/aten::size/Gather_7" type="Gather" version="opset8">
			<data batch_dims="0" />
			<input>
				<port id="0" precision="I64">
					<dim>4</dim>
				</port>
				<port id="1" precision="I64">
					<dim>1</dim>
				</port>
				<port id="2" precision="I32" />
			</input>
			<output>
				<port id="3" precision="I64" names="165">
					<dim>1</dim>
				</port>
			</output>
		</layer>
		<layer id="133" name="Constant_159905" type="Const" version="opset1">
			<data element_type="i64" shape="1" offset="702" size="8" />
			<output>
				<port id="0" precision="I64">
					<dim>1</dim>
				</port>
			</output>
		</layer>
		<layer id="134" name="Constant_160519" type="Const" version="opset1">
			<data element_type="i64" shape="2" offset="898" size="16" />
			<output>
				<port id="0" precision="I64">
					<dim>2</dim>
				</port>
			</output>
		</layer>
		<layer id="135" name="Constant_160520" type="Const" version="opset1">
			<data element_type="i64" shape="" offset="662" size="8" />
			<output>
				<port id="0" precision="I64" />
			</output>
		</layer>
		<layer id="136" name="Gather_160521" type="Gather" version="opset8">
			<data batch_dims="0" />
			<input>
				<port id="0" precision="I64">
					<dim>4</dim>
				</port>
				<port id="1" precision="I64">
					<dim>2</dim>
				</port>
				<port id="2" precision="I64" />
			</input>
			<output>
				<port id="3" precision="I64">
					<dim>2</dim>
				</port>
			</output>
		</layer>
		<layer id="137" name="__module.model.layers.0.self_attn/prim::ListConstruct/Concat_2" type="Concat" version="opset1">
			<data axis="0" />
			<input>
				<port id="0" precision="I64">
					<dim>1</dim>
				</port>
				<port id="1" precision="I64">
					<dim>1</dim>
				</port>
				<port id="2" precision="I64">
					<dim>1</dim>
				</port>
				<port id="3" precision="I64">
					<dim>2</dim>
				</port>
			</input>
			<output>
				<port id="4" precision="I64" names="174">
					<dim>5</dim>
				</port>
			</output>
		</layer>
		<layer id="138" name="__module.model.layers.0.self_attn/aten::expand/Broadcast" type="Broadcast" version="opset3">
			<data mode="bidirectional" />
			<input>
				<port id="0" precision="FP32">
					<dim>-1</dim>
					<dim>1</dim>
					<dim>1</dim>
					<dim>-1</dim>
					<dim>4</dim>
				</port>
				<port id="1" precision="I64">
					<dim>5</dim>
				</port>
			</input>
			<output>
				<port id="2" precision="FP32" names="175,hidden_states.11">
					<dim>-1</dim>
					<dim>1</dim>
					<dim>2</dim>
					<dim>-1</dim>
					<dim>4</dim>
				</port>
			</output>
		</layer>
		<layer id="139" name="Constant_162057" type="Const" version="opset1">
			<data element_type="i64" shape="4" offset="914" size="32" />
			<output>
				<port id="0" precision="I64">
					<dim>4</dim>
				</port>
			</output>
		</layer>
		<layer id="140" name="__module.model.layers.0.self_attn/aten::reshape/Reshape" type="Reshape" version="opset1">
			<data special_zero="true" />
			<input>
				<port id="0" precision="FP32">
					<dim>-1</dim>
					<dim>1</dim>
					<dim>2</dim>
					<dim>-1</dim>
					<dim>4</dim>
				</port>
				<port id="1" precision="I64">
					<dim>4</dim>
				</port>
			</input>
			<output>
				<port id="2" precision="FP32" names="179,key_states.3">
					<dim>-1</dim>
					<dim>2</dim>
					<dim>-1</dim>
					<dim>4</dim>
				</port>
			</output>
		</layer>
		<layer id="141" name="__module.model.layers.0.self_attn/aten::matmul/MatMul" type="MatMul" version="opset1">
			<data transpose_a="false" transpose_b="true" />
			<input>
				<port id="0" precision="FP32">
					<dim>-1</dim>
					<dim>2</dim>
					<dim>-1</dim>
					<dim>4</dim>
				</port>
				<port id="1" precision="FP32">
					<dim>-1</dim>
					<dim>2</dim>
					<dim>-1</dim>
					<dim>4</dim>
				</port>
			</input>
			<output>
				<port id="2" precision="FP32" names="197">
					<dim>-1</dim>
					<dim>2</dim>
					<dim>-1</dim>
					<dim>-1</dim>
				</port>
			</output>
		</layer>
		<layer id="142" name="Constant_161268" type="Const" version="opset1">
			<data element_type="f32" shape="1, 1, 1, 1" offset="360" size="4" />
			<output>
				<port id="0" precision="FP32">
					<dim>1</dim>
					<dim>1</dim>
					<dim>1</dim>
					<dim>1</dim>
				</port>
			</output>
		</layer>
		<layer id="143" name="__module.model.layers.0.self_attn/aten::div/Divide" type="Divide" version="opset1">
			<data auto_broadcast="numpy" m_pythondiv="true" />
			<input>
				<port id="0" precision="FP32">
					<dim>-1</dim>
					<dim>2</dim>
					<dim>-1</dim>
					<dim>-1</dim>
				</port>
				<port id="1" precision="FP32">
					<dim>1</dim>
					<dim>1</dim>
					<dim>1</dim>
					<dim>1</dim>
				</port>
			</input>
			<output>
				<port id="2" precision="FP32" names="198,attn_weights.1">
					<dim>-1</dim>
					<dim>2</dim>
					<dim>-1</dim>
					<dim>-1</dim>
				</port>
			</output>
		</layer>
		<layer id="144" name="__module.model/aten::triu/Constant" type="Const" version="opset1">
			<data element_type="i32" shape="" offset="352" size="4" />
			<output>
				<port id="0" precision="I32" />
			</output>
		</layer>
		<layer id="145" name="__module.model/aten::add/Multiply_2" type="Const" version="opset1">
			<data element_type="i64" shape="" offset="670" size="8" />
			<output>
				<port id="0" precision="I64" />
			</output>
		</layer>
		<layer id="146" name="__module.model/aten::add/Add_2" type="Add" version="opset1">
			<data auto_broadcast="numpy" />
			<input>
				<port id="0" precision="I64" />
				<port id="1" precision="I64" />
			</input>
			<output>
				<port id="2" precision="I64" names="48,50" />
			</output>
		</layer>
		<layer id="147" name="Convert_161882" type="Convert" version="opset1">
			<data destination_type="i32" />
			<input>
				<port id="0" precision="I64" />
			</input>
			<output>
				<port id="1" precision="I32" />
			</output>
		</layer>
		<layer id="148" name="__module.model/aten::triu/Constant_2" type="Const" version="opset1">
			<data element_type="i32" shape="" offset="678" size="4" />
			<output>
				<port id="0" precision="I32" />
			</output>
		</layer>
		<layer id="149" name="__module.model/aten::triu/Range" type="Range" version="opset4">
			<data output_type="i32" />
			<input>
				<port id="0" precision="I32" />
				<port id="1" precision="I32" />
				<port id="2" precision="I32" />
			</input>
			<output>
				<port id="3" precision="I32">
					<dim>-1</dim>
				</port>
			</output>
		</layer>
		<layer id="150" name="__module.model/aten::triu/Unsqueeze" type="Unsqueeze" version="opset1">
			<input>
				<port id="0" precision="I32">
					<dim>-1</dim>
				</port>
				<port id="1" precision="I32" />
			</input>
			<output>
				<port id="2" precision="I32">
					<dim>1</dim>
					<dim>-1</dim>
				</port>
			</output>
		</layer>
		<layer id="151" name="__module.model/aten::triu/Convert" type="Const" version="opset1">
			<data element_type="i32" shape="" offset="678" size="4" />
			<output>
				<port id="0" precision="I32" />
			</output>
		</layer>
		<layer id="152" name="Convert_161948" type="Convert" version="opset1">
			<data destination_type="i32" />
			<input>
				<port id="0" precision="I64" />
			</input>
			<output>
				<port id="1" precision="I32" />
			</output>
		</layer>
		<layer id="153" name="__module.model/aten::triu/Add" type="Add" version="opset1">
			<data auto_broadcast="numpy" />
			<input>
				<port id="0" precision="I32" />
				<port id="1" precision="I32" />
			</input>
			<output>
				<port id="2" precision="I32" />
			</output>
		</layer>
		<layer id="154" name="__module.model/aten::triu/Range_1" type="Range" version="opset4">
			<data output_type="i32" />
			<input>
				<port id="0" precision="I32" />
				<port id="1" precision="I32" />
				<port id="2" precision="I32" />
			</input>
			<output>
				<port id="3" precision="I32">
					<dim>-1</dim>
				</port>
			</output>
		</layer>
		<layer id="155" name="__module.model/aten::triu/Unsqueeze_1" type="Unsqueeze" version="opset1">
			<input>
				<port id="0" precision="I32">
					<dim>-1</dim>
				</port>
				<port id="1" precision="I32" />
			</input>
			<output>
				<port id="2" precision="I32">
					<dim>-1</dim>
					<dim>1</dim>
				</port>
			</output>
		</layer>
		<layer id="156" name="__module.model/aten::triu/GreaterEqual" type="GreaterEqual" version="opset1">
			<data auto_broadcast="numpy" />
			<input>
				<port id="0" precision="I32">
					<dim>1</dim>
					<dim>-1</dim>
				</port>
				<port id="1" precision="I32">
					<dim>-1</dim>
					<dim>1</dim>
				</port>
			</input>
			<output>
				<port id="2" precision="BOOL">
					<dim>-1</dim>
					<dim>-1</dim>
				</port>
			</output>
		</layer>
		<layer id="157" name="__module.model/aten::full/Convert" type="Const" version="opset1">
			<data element_type="f32" shape="" offset="946" size="4" />
			<output>
				<port id="0" precision="FP32" />
			</output>
		</layer>
		<layer id="158" name="Constant_161816" type="Const" version="opset1">
			<data element_type="i64" shape="1" offset="670" size="8" />
			<output>
				<port id="0" precision="I64">
					<dim>1</dim>
				</port>
			</output>
		</layer>
		<layer id="159" name="Reshape_161817" type="Reshape" version="opset1">
			<data special_zero="false" />
			<input>
				<port id="0" precision="I64" />
				<port id="1" precision="I64">
					<dim>1</dim>
				</port>
			</input>
			<output>
				<port id="2" precision="I64">
					<dim>1</dim>
				</port>
			</output>
		</layer>
		<layer id="160" name="Constant_161819" type="Const" version="opset1">
			<data element_type="i64" shape="1" offset="670" size="8" />
			<output>
				<port id="0" precision="I64">
					<dim>1</dim>
				</port>
			</output>
		</layer>
		<layer id="161" name="Reshape_161820" type="Reshape" version="opset1">
			<data special_zero="false" />
			<input>
				<port id="0" precision="I64" />
				<port id="1" precision="I64">
					<dim>1</dim>
				</port>
			</input>
			<output>
				<port id="2" precision="I64">
					<dim>1</dim>
				</port>
			</output>
		</layer>
		<layer id="162" name="__module.model/prim::ListConstruct/Concat" type="Concat" version="opset1">
			<data axis="0" />
			<input>
				<port id="0" precision="I64">
					<dim>1</dim>
				</port>
				<port id="1" precision="I64">
					<dim>1</dim>
				</port>
			</input>
			<output>
				<port id="2" precision="I64" names="51">
					<dim>2</dim>
				</port>
			</output>
		</layer>
		<layer id="163" name="__module.model/aten::full/Broadcast" type="Broadcast" version="opset3">
			<data mode="numpy" />
			<input>
				<port id="0" precision="FP32" />
				<port id="1" precision="I64">
					<dim>2</dim>
				</port>
			</input>
			<output>
				<port id="2" precision="FP32" names="52">
					<dim>-1</dim>
					<dim>-1</dim>
				</port>
			</output>
		</layer>
		<layer id="164" name="__module.model/aten::triu/ConvertLike" type="Const" version="opset1">
			<data element_type="f32" shape="" offset="352" size="4" />
			<output>
				<port id="0" precision="FP32" />
			</output>
		</layer>
		<layer id="165" name="__module.model/aten::triu/Select" type="Select" version="opset1">
			<data auto_broadcast="numpy" />
			<input>
				<port id="0" precision="BOOL">
					<dim>-1</dim>
					<dim>-1</dim>
				</port>
				<port id="1" precision="FP32">
					<dim>-1</dim>
					<dim>-1</dim>
				</port>
				<port id="2" precision="FP32" />
			</input>
			<output>
				<port id="3" precision="FP32" names="53_1">
					<dim>-1</dim>
					<dim>-1</dim>
				</port>
			</output>
		</layer>
		<layer id="166" name="__module.model/aten::arange/Constant_1" type="Const" version="opset1">
			<data element_type="i32" shape="" offset="352" size="4" />
			<output>
				<port id="0" precision="I32" />
			</output>
		</layer>
		<layer id="167" name="__module.model/aten::arange/Constant_2" type="Const" version="opset1">
			<data element_type="i32" shape="" offset="678" size="4" />
			<output>
				<port id="0" precision="I32" />
			</output>
		</layer>
		<layer id="168" name="__module.model/aten::arange/Range_1" type="Range" version="opset4">
			<data output_type="f32" />
			<input>
				<port id="0" precision="I32" />
				<port id="1" precision="I64" />
				<port id="2" precision="I32" />
			</input>
			<output>
				<port id="3" precision="FP32">
					<dim>-1</dim>
				</port>
			</output>
		</layer>
		<layer id="169" name="__module.model/aten::arange/ConvertLike" type="Convert" version="opset1">
			<data destination_type="i64" />
			<input>
				<port id="0" precision="FP32">
					<dim>-1</dim>
				</port>
			</input>
			<output>
				<port id="1" precision="I64" names="54">
					<dim>-1</dim>
				</port>
			</output>
		</layer>
		<layer id="170" name="__module.model/aten::gt/Convert" type="Convert" version="opset1">
			<data destination_type="f32" />
			<input>
				<port id="0" precision="I64">
					<dim>-1</dim>
				</port>
			</input>
			<output>
				<port id="1" precision="FP32">
					<dim>-1</dim>
				</port>
			</output>
		</layer>
		<layer id="171" name="Constant_148457" type="Const" version="opset1">
			<data element_type="i64" shape="2" offset="950" size="16" />
			<output>
				<port id="0" precision="I64" names="55">
					<dim>2</dim>
				</port>
			</output>
		</layer>
		<layer id="172" name="__module.model/aten::reshape/Reshape" type="Reshape" version="opset1">
			<data special_zero="false" />
			<input>
				<port id="0" precision="FP32">
					<dim>-1</dim>
				</port>
				<port id="1" precision="I64">
					<dim>2</dim>
				</port>
			</input>
			<output>
				<port id="2" precision="FP32" names="56">
					<dim>-1</dim>
					<dim>1</dim>
				</port>
			</output>
		</layer>
		<layer id="173" name="__module.model/aten::gt/Greater" type="Greater" version="opset1">
			<data auto_broadcast="numpy" />
			<input>
				<port id="0" precision="FP32">
					<dim>-1</dim>
				</port>
				<port id="1" precision="FP32">
					<dim>-1</dim>
					<dim>1</dim>
				</port>
			</input>
			<output>
				<port id="2" precision="BOOL" names="57">
					<dim>-1</dim>
					<dim>-1</dim>
				</port>
			</output>
		</layer>
		<layer id="174" name="__module.model/aten::mul_/ConvertLike" type="Convert" version="opset1">
			<data destination_type="f32" />
			<input>
				<port id="0" precision="BOOL">
					<dim>-1</dim>
					<dim>-1</dim>
				</port>
			</input>
			<output>
				<port id="1" precision="FP32">
					<dim>-1</dim>
					<dim>-1</dim>
				</port>
			</output>
		</layer>
		<layer id="175" name="__module.model/aten::mul_/Multiply" type="Multiply" version="opset1">
			<data auto_broadcast="numpy" />
			<input>
				<port id="0" precision="FP32">
					<dim>-1</dim>
					<dim>-1</dim>
				</port>
				<port id="1" precision="FP32">
					<dim>-1</dim>
					<dim>-1</dim>
				</port>
			</input>
			<output>
				<port id="2" precision="FP32" names="53,causal_mask.1">
					<dim>-1</dim>
					<dim>-1</dim>
				</port>
			</output>
		</layer>
		<layer id="176" name="__module.model/aten::unsqueeze/Unsqueeze_1" type="Unsqueeze" version="opset1">
			<input>
				<port id="0" precision="FP32">
					<dim>-1</dim>
					<dim>-1</dim>
				</port>
				<port id="1" precision="I64" />
			</input>
			<output>
				<port id="2" precision="FP32" names="59">
					<dim>1</dim>
					<dim>-1</dim>
					<dim>-1</dim>
				</port>
			</output>
		</layer>
		<layer id="177" name="__module.model/aten::unsqueeze/Unsqueeze_2" type="Unsqueeze" version="opset1">
			<input>
				<port id="0" precision="FP32">
					<dim>1</dim>
					<dim>-1</dim>
					<dim>-1</dim>
				</port>
				<port id="1" precision="I64" />
			</input>
			<output>
				<port id="2" precision="FP32" names="60,61,62">
					<dim>1</dim>
					<dim>1</dim>
					<dim>-1</dim>
					<dim>-1</dim>
				</port>
			</output>
		</layer>
		<layer id="178" name="Constant_159922" type="Const" version="opset1">
			<data element_type="i64" shape="1" offset="670" size="8" />
			<output>
				<port id="0" precision="I64">
					<dim>1</dim>
				</port>
			</output>
		</layer>
		<layer id="179" name="Constant_159924" type="Const" version="opset1">
			<data element_type="i64" shape="1" offset="670" size="8" />
			<output>
				<port id="0" precision="I64">
					<dim>1</dim>
				</port>
			</output>
		</layer>
		<layer id="180" name="Constant_159926" type="Const" version="opset1">
			<data element_type="i64" shape="1" offset="670" size="8" />
			<output>
				<port id="0" precision="I64">
					<dim>1</dim>
				</port>
			</output>
		</layer>
		<layer id="181" name="__module.model/prim::ListConstruct/Concat_1" type="Concat" version="opset1">
			<data axis="0" />
			<input>
				<port id="0" precision="I64">
					<dim>1</dim>
				</port>
				<port id="1" precision="I64">
					<dim>1</dim>
				</port>
				<port id="2" precision="I64">
					<dim>1</dim>
				</port>
				<port id="3" precision="I64">
					<dim>1</dim>
				</port>
			</input>
			<output>
				<port id="4" precision="I64" names="64">
					<dim>4</dim>
				</port>
			</output>
		</layer>
		<layer id="182" name="__module.model/aten::expand/Broadcast" type="Broadcast" version="opset3">
			<data mode="bidirectional" />
			<input>
				<port id="0" precision="FP32">
					<dim>1</dim>
					<dim>1</dim>
					<dim>-1</dim>
					<dim>-1</dim>
				</port>
				<port id="1" precision="I64">
					<dim>4</dim>
				</port>
			</input>
			<output>
				<port id="2" precision="FP32" names="200,201,202,375,376,377,65,attention_mask">
					<dim>-1</dim>
					<dim>1</dim>
					<dim>-1</dim>
					<dim>-1</dim>
				</port>
			</output>
		</layer>
		<layer id="183" name="__module.model.layers.0.self_attn/aten::slice/Reshape_44" type="Const" version="opset1">
			<data element_type="i64" shape="1" offset="662" size="8" />
			<output>
				<port id="0" precision="I64">
					<dim>1</dim>
				</port>
			</output>
		</layer>
		<layer id="184" name="Constant_161955" type="Const" version="opset1">
			<data element_type="i64" shape="1" offset="702" size="8" />
			<output>
				<port id="0" precision="I64">
					<dim>1</dim>
				</port>
			</output>
		</layer>
		<layer id="185" name="Constant_161956" type="Const" version="opset1">
			<data element_type="i64" shape="" offset="662" size="8" />
			<output>
				<port id="0" precision="I64" />
			</output>
		</layer>
		<layer id="186" name="Gather_161957" type="Gather" version="opset8">
			<data batch_dims="0" />
			<input>
				<port id="0" precision="I64">
					<dim>4</dim>
				</port>
				<port id="1" precision="I64">
					<dim>1</dim>
				</port>
				<port id="2" precision="I64" />
			</input>
			<output>
				<port id="3" precision="I64" names="199">
					<dim>1</dim>
				</port>
			</output>
		</layer>
		<layer id="187" name="__module.model.layers.0.self_attn/aten::slice/Reshape_46" type="Const" version="opset1">
			<data element_type="i64" shape="1" offset="670" size="8" />
			<output>
				<port id="0" precision="I64">
					<dim>1</dim>
				</port>
			</output>
		</layer>
		<layer id="188" name="__module.model.layers.0.self_attn/aten::slice/Reshape_47" type="Const" version="opset1">
			<data element_type="i64" shape="1" offset="694" size="8" />
			<output>
				<port id="0" precision="I64">
					<dim>1</dim>
				</port>
			</output>
		</layer>
		<layer id="189" name="__module.model.layers.0.self_attn/aten::slice/Slice_11" type="Slice" version="opset8">
			<input>
				<port id="0" precision="FP32">
					<dim>-1</dim>
					<dim>1</dim>
					<dim>-1</dim>
					<dim>-1</dim>
				</port>
				<port id="1" precision="I64">
					<dim>1</dim>
				</port>
				<port id="2" precision="I64">
					<dim>1</dim>
				</port>
				<port id="3" precision="I64">
					<dim>1</dim>
				</port>
				<port id="4" precision="I64">
					<dim>1</dim>
				</port>
			</input>
			<output>
				<port id="5" precision="FP32" names="203,causal_mask.5">
					<dim>-1</dim>
					<dim>1</dim>
					<dim>-1</dim>
					<dim>-1</dim>
				</port>
			</output>
		</layer>
		<layer id="190" name="__module.model.layers.0.self_attn/aten::add/Add_2" type="Add" version="opset1">
			<data auto_broadcast="numpy" />
			<input>
				<port id="0" precision="FP32">
					<dim>-1</dim>
					<dim>2</dim>
					<dim>-1</dim>
					<dim>-1</dim>
				</port>
				<port id="1" precision="FP32">
					<dim>-1</dim>
					<dim>1</dim>
					<dim>-1</dim>
					<dim>-1</dim>
				</port>
			</input>
			<output>
				<port id="2" precision="FP32" names="204,input.1">
					<dim>-1</dim>
					<dim>2</dim>
					<dim>-1</dim>
					<dim>-1</dim>
				</port>
			</output>
		</layer>
		<layer id="191" name="__module.model.layers.0.self_attn/aten::softmax/Softmax" type="SoftMax" version="opset8">
			<data axis="-1" />
			<input>
				<port id="0" precision="FP32">
					<dim>-1</dim>
					<dim>2</dim>
					<dim>-1</dim>
					<dim>-1</dim>
				</port>
			</input>
			<output>
				<port id="1" precision="FP32" names="205,206,input.3">
					<dim>-1</dim>
					<dim>2</dim>
					<dim>-1</dim>
					<dim>-1</dim>
				</port>
			</output>
		</layer>
		<layer id="192" name="self.model.layers.0.self_attn.v_proj.weight" type="Const" version="opset1">
			<data element_type="u4" shape="4, 8, 1" offset="966" size="16" />
			<output>
				<port id="0" precision="U4">
					<dim>4</dim>
					<dim>8</dim>
					<dim>1</dim>
				</port>
			</output>
		</layer>
		<layer id="193" name="Convert_163068" type="Convert" version="opset1">
			<data destination_type="f16" />
			<input>
				<port id="0" precision="U4">
					<dim>4</dim>
					<dim>8</dim>
					<dim>1</dim>
				</port>
			</input>
			<output>
				<port id="1" precision="FP16">
					<dim>4</dim>
					<dim>8</dim>
					<dim>1</dim>
				</port>
			</output>
		</layer>
		<layer id="194" name="self.model.layers.0.self_attn.v_proj.weight/zero_point" type="Const" version="opset1">
			<data element_type="u4" shape="4, 8, 1" offset="982" size="16" />
			<output>
				<port id="0" precision="U4">
					<dim>4</dim>
					<dim>8</dim>
					<dim>1</dim>
				</port>
			</output>
		</layer>
		<layer id="195" name="Convert_163070" type="Convert" version="opset1">
			<data destination_type="f16" />
			<input>
				<port id="0" precision="U4">
					<dim>4</dim>
					<dim>8</dim>
					<dim>1</dim>
				</port>
			</input>
			<output>
				<port id="1" precision="FP16">
					<dim>4</dim>
					<dim>8</dim>
					<dim>1</dim>
				</port>
			</output>
		</layer>
		<layer id="196" name="self.model.layers.0.self_attn.v_proj.weight/zero_point/subtract" type="Subtract" version="opset1">
			<data auto_broadcast="numpy" />
			<input>
				<port id="0" precision="FP16">
					<dim>4</dim>
					<dim>8</dim>
					<dim>1</dim>
				</port>
				<port id="1" precision="FP16">
					<dim>4</dim>
					<dim>8</dim>
					<dim>1</dim>
				</port>
			</input>
			<output>
				<port id="2" precision="FP16">
					<dim>4</dim>
					<dim>8</dim>
					<dim>1</dim>
				</port>
			</output>
		</layer>
		<layer id="197" name="self.model.layers.0.self_attn.v_proj.weight/scale" type="Const" version="opset1">
			<data element_type="f16" shape="4, 8, 1" offset="754" size="64" />
			<output>
				<port id="0" precision="FP16">
					<dim>4</dim>
					<dim>8</dim>
					<dim>1</dim>
				</port>
			</output>
		</layer>
		<layer id="198" name="self.model.layers.0.self_attn.v_proj.weight/fq_weights_1" type="Multiply" version="opset1">
			<data auto_broadcast="numpy" />
			<input>
				<port id="0" precision="FP16">
					<dim>4</dim>
					<dim>8</dim>
					<dim>1</dim>
				</port>
				<port id="1" precision="FP16">
					<dim>4</dim>
					<dim>8</dim>
					<dim>1</dim>
				</port>
			</input>
			<output>
				<port id="2" precision="FP16">
					<dim>4</dim>
					<dim>8</dim>
					<dim>1</dim>
				</port>
			</output>
		</layer>
		<layer id="199" name="Constant_163075" type="Const" version="opset1">
			<data element_type="i64" shape="2" offset="818" size="16" />
			<output>
				<port id="0" precision="I64">
					<dim>2</dim>
				</port>
			</output>
		</layer>
		<layer id="200" name="Reshape_163076" type="Reshape" version="opset1">
			<data special_zero="false" />
			<input>
				<port id="0" precision="FP16">
					<dim>4</dim>
					<dim>8</dim>
					<dim>1</dim>
				</port>
				<port id="1" precision="I64">
					<dim>2</dim>
				</port>
			</input>
			<output>
				<port id="2" precision="FP16">
					<dim>4</dim>
					<dim>8</dim>
				</port>
			</output>
		</layer>
		<layer id="201" name="self.model.layers.0.self_attn.v_proj.weight/fq_weights_1/convert" type="Convert" version="opset1">
			<data destination_type="f32" />
			<input>
				<port id="0" precision="FP16">
					<dim>4</dim>
					<dim>8</dim>
				</port>
			</input>
			<output>
				<port id="1" precision="FP32">
					<dim>4</dim>
					<dim>8</dim>
				</port>
			</output>
		</layer>
		<layer id="202" name="__module.model.layers.0.self_attn.v_proj/aten::linear/MatMul" type="MatMul" version="opset1">
			<data transpose_a="false" transpose_b="true" />
			<input>
				<port id="0" precision="FP32">
					<dim>-1</dim>
					<dim>-1</dim>
					<dim>8</dim>
				</port>
				<port id="1" precision="FP32">
					<dim>4</dim>
					<dim>8</dim>
				</port>
			</input>
			<output>
				<port id="2" precision="FP32" names="95,value_states.1">
					<dim>-1</dim>
					<dim>-1</dim>
					<dim>4</dim>
				</port>
			</output>
		</layer>
		<layer id="203" name="Constant_162058" type="Const" version="opset1">
			<data element_type="i64" shape="4" offset="834" size="32" />
			<output>
				<port id="0" precision="I64">
					<dim>4</dim>
				</port>
			</output>
		</layer>
		<layer id="204" name="__module.model.layers.0.self_attn/aten::view/Reshape_2" type="Reshape" version="opset1">
			<data special_zero="true" />
			<input>
				<port id="0" precision="FP32">
					<dim>-1</dim>
					<dim>-1</dim>
					<dim>4</dim>
				</port>
				<port id="1" precision="I64">
					<dim>4</dim>
				</port>
			</input>
			<output>
				<port id="2" precision="FP32" names="103">
					<dim>-1</dim>
					<dim>-1</dim>
					<dim>1</dim>
					<dim>4</dim>
				</port>
			</output>
		</layer>
		<layer id="205" name="Constant_161070" type="Const" version="opset1">
			<data element_type="i64" shape="4" offset="866" size="32" />
			<output>
				<port id="0" precision="I64">
					<dim>4</dim>
				</port>
			</output>
		</layer>
		<layer id="206" name="__module.model.layers.0.self_attn/aten::transpose/Transpose_3" type="Reshape" version="opset1">
			<data special_zero="true" />
			<input>
				<port id="0" precision="FP32">
					<dim>-1</dim>
					<dim>-1</dim>
					<dim>1</dim>
					<dim>4</dim>
				</port>
				<port id="1" precision="I64">
					<dim>4</dim>
				</port>
			</input>
			<output>
				<port id="2" precision="FP32" names="104,185,186,hidden_states.13">
					<dim>-1</dim>
					<dim>1</dim>
					<dim>-1</dim>
					<dim>4</dim>
				</port>
			</output>
		</layer>
		<layer id="207" name="__module.model.layers.0.self_attn/aten::unsqueeze/Unsqueeze_3" type="Unsqueeze" version="opset1">
			<input>
				<port id="0" precision="FP32">
					<dim>-1</dim>
					<dim>1</dim>
					<dim>-1</dim>
					<dim>4</dim>
				</port>
				<port id="1" precision="I64" />
			</input>
			<output>
				<port id="2" precision="FP32" names="187,188,189">
					<dim>-1</dim>
					<dim>1</dim>
					<dim>1</dim>
					<dim>-1</dim>
					<dim>4</dim>
				</port>
			</output>
		</layer>
		<layer id="208" name="__module.model.layers.0.self_attn/aten::size/ShapeOf_11" type="ShapeOf" version="opset3">
			<data output_type="i64" />
			<input>
				<port id="0" precision="FP32">
					<dim>-1</dim>
					<dim>1</dim>
					<dim>-1</dim>
					<dim>4</dim>
				</port>
			</input>
			<output>
				<port id="1" precision="I64">
					<dim>4</dim>
				</port>
			</output>
		</layer>
		<layer id="209" name="Constant_162165" type="Const" version="opset1">
			<data element_type="i64" shape="1" offset="670" size="8" />
			<output>
				<port id="0" precision="I64">
					<dim>1</dim>
				</port>
			</output>
		</layer>
		<layer id="210" name="__module.model.layers.0.self_attn/aten::size/Constant_12" type="Const" version="opset1">
			<data element_type="i32" shape="" offset="352" size="4" />
			<output>
				<port id="0" precision="I32" />
			</output>
		</layer>
		<layer id="211" name="__module.model.layers.0.self_attn/aten::size/Gather_12" type="Gather" version="opset8">
			<data batch_dims="0" />
			<input>
				<port id="0" precision="I64">
					<dim>4</dim>
				</port>
				<port id="1" precision="I64">
					<dim>1</dim>
				</port>
				<port id="2" precision="I32" />
			</input>
			<output>
				<port id="3" precision="I64" names="181">
					<dim>1</dim>
				</port>
			</output>
		</layer>
		<layer id="212" name="Constant_159933" type="Const" version="opset1">
			<data element_type="i64" shape="1" offset="702" size="8" />
			<output>
				<port id="0" precision="I64">
					<dim>1</dim>
				</port>
			</output>
		</layer>
		<layer id="213" name="Constant_160529" type="Const" version="opset1">
			<data element_type="i64" shape="2" offset="898" size="16" />
			<output>
				<port id="0" precision="I64">
					<dim>2</dim>
				</port>
			</output>
		</layer>
		<layer id="214" name="Constant_160530" type="Const" version="opset1">
			<data element_type="i64" shape="" offset="662" size="8" />
			<output>
				<port id="0" precision="I64" />
			</output>
		</layer>
		<layer id="215" name="Gather_160531" type="Gather" version="opset8">
			<data batch_dims="0" />
			<input>
				<port id="0" precision="I64">
					<dim>4</dim>
				</port>
				<port id="1" precision="I64">
					<dim>2</dim>
				</port>
				<port id="2" precision="I64" />
			</input>
			<output>
				<port id="3" precision="I64">
					<dim>2</dim>
				</port>
			</output>
		</layer>
		<layer id="216" name="__module.model.layers.0.self_attn/prim::ListConstruct/Concat_5" type="Concat" version="opset1">
			<data axis="0" />
			<input>
				<port id="0" precision="I64">
					<dim>1</dim>
				</port>
				<port id="1" precision="I64">
					<dim>1</dim>
				</port>
				<port id="2" precision="I64">
					<dim>1</dim>
				</port>
				<port id="3" precision="I64">
					<dim>2</dim>
				</port>
			</input>
			<output>
				<port id="4" precision="I64" names="190">
					<dim>5</dim>
				</port>
			</output>
		</layer>
		<layer id="217" name="__module.model.layers.0.self_attn/aten::expand/Broadcast_1" type="Broadcast" version="opset3">
			<data mode="bidirectional" />
			<input>
				<port id="0" precision="FP32">
					<dim>-1</dim>
					<dim>1</dim>
					<dim>1</dim>
					<dim>-1</dim>
					<dim>4</dim>
				</port>
				<port id="1" precision="I64">
					<dim>5</dim>
				</port>
			</input>
			<output>
				<port id="2" precision="FP32" names="191,hidden_states.15">
					<dim>-1</dim>
					<dim>1</dim>
					<dim>2</dim>
					<dim>-1</dim>
					<dim>4</dim>
				</port>
			</output>
		</layer>
		<layer id="218" name="Constant_162059" type="Const" version="opset1">
			<data element_type="i64" shape="4" offset="914" size="32" />
			<output>
				<port id="0" precision="I64">
					<dim>4</dim>
				</port>
			</output>
		</layer>
		<layer id="219" name="__module.model.layers.0.self_attn/aten::reshape/Reshape_1" type="Reshape" version="opset1">
			<data special_zero="true" />
			<input>
				<port id="0" precision="FP32">
					<dim>-1</dim>
					<dim>1</dim>
					<dim>2</dim>
					<dim>-1</dim>
					<dim>4</dim>
				</port>
				<port id="1" precision="I64">
					<dim>4</dim>
				</port>
			</input>
			<output>
				<port id="2" precision="FP32" names="195">
					<dim>-1</dim>
					<dim>2</dim>
					<dim>-1</dim>
					<dim>4</dim>
				</port>
			</output>
		</layer>
		<layer id="220" name="__module.model.layers.0.self_attn/aten::matmul/MatMul_1" type="MatMul" version="opset1">
			<data transpose_a="false" transpose_b="false" />
			<input>
				<port id="0" precision="FP32">
					<dim>-1</dim>
					<dim>2</dim>
					<dim>-1</dim>
					<dim>-1</dim>
				</port>
				<port id="1" precision="FP32">
					<dim>-1</dim>
					<dim>2</dim>
					<dim>-1</dim>
					<dim>4</dim>
				</port>
			</input>
			<output>
				<port id="2" precision="FP32" names="208,attn_output.1">
					<dim>-1</dim>
					<dim>2</dim>
					<dim>-1</dim>
					<dim>4</dim>
				</port>
			</output>
		</layer>
		<layer id="221" name="__module.model.layers.0.self_attn/aten::transpose/ScatterElementsUpdate_4" type="Const" version="opset1">
			<data element_type="i32" shape="4" offset="616" size="16" />
			<output>
				<port id="0" precision="I32">
					<dim>4</dim>
				</port>
			</output>
		</layer>
		<layer id="222" name="__module.model.layers.0.self_attn/aten::transpose/Transpose_4" type="Transpose" version="opset1">
			<input>
				<port id="0" precision="FP32">
					<dim>-1</dim>
					<dim>2</dim>
					<dim>-1</dim>
					<dim>4</dim>
				</port>
				<port id="1" precision="I32">
					<dim>4</dim>
				</port>
			</input>
			<output>
				<port id="2" precision="FP32" names="209">
					<dim>-1</dim>
					<dim>-1</dim>
					<dim>2</dim>
					<dim>4</dim>
				</port>
			</output>
		</layer>
		<layer id="223" name="Constant_160509" type="Const" version="opset1">
			<data element_type="i64" shape="2" offset="998" size="16" />
			<output>
				<port id="0" precision="I64">
					<dim>2</dim>
				</port>
			</output>
		</layer>
		<layer id="224" name="Constant_160510" type="Const" version="opset1">
			<data element_type="i64" shape="" offset="662" size="8" />
			<output>
				<port id="0" precision="I64" />
			</output>
		</layer>
		<layer id="225" name="Gather_160511" type="Gather" version="opset8">
			<data batch_dims="0" />
			<input>
				<port id="0" precision="I64">
					<dim>3</dim>
				</port>
				<port id="1" precision="I64">
					<dim>2</dim>
				</port>
				<port id="2" precision="I64" />
			</input>
			<output>
				<port id="3" precision="I64">
					<dim>2</dim>
				</port>
			</output>
		</layer>
		<layer id="226" name="__module.model.layers.0.self_attn.rotary_emb/prim::ListConstruct/Reshape_0" type="Const" version="opset1">
			<data element_type="i64" shape="1" offset="364" size="8" />
			<output>
				<port id="0" precision="I64">
					<dim>1</dim>
				</port>
			</output>
		</layer>
		<layer id="227" name="__module.model.layers.0.self_attn/prim::ListConstruct/Concat_7" type="Concat" version="opset1">
			<data axis="0" />
			<input>
				<port id="0" precision="I64">
					<dim>2</dim>
				</port>
				<port id="1" precision="I64">
					<dim>1</dim>
				</port>
			</input>
			<output>
				<port id="2" precision="I64" names="211">
					<dim>3</dim>
				</port>
			</output>
		</layer>
		<layer id="228" name="__module.model.layers.0.self_attn/aten::reshape/Reshape_2" type="Reshape" version="opset1">
			<data special_zero="false" />
			<input>
				<port id="0" precision="FP32">
					<dim>-1</dim>
					<dim>-1</dim>
					<dim>2</dim>
					<dim>4</dim>
				</port>
				<port id="1" precision="I64">
					<dim>3</dim>
				</port>
			</input>
			<output>
				<port id="2" precision="FP32" names="212">
					<dim>-1</dim>
					<dim>-1</dim>
					<dim>-1</dim>
				</port>
			</output>
		</layer>
		<layer id="229" name="self.model.layers.0.self_attn.o_proj.weight" type="Const" version="opset1">
			<data element_type="u4" shape="8, 8, 1" offset="1014" size="32" />
			<output>
				<port id="0" precision="U4">
					<dim>8</dim>
					<dim>8</dim>
					<dim>1</dim>
				</port>
			</output>
		</layer>
		<layer id="230" name="Convert_163035" type="Convert" version="opset1">
			<data destination_type="f16" />
			<input>
				<port id="0" precision="U4">
					<dim>8</dim>
					<dim>8</dim>
					<dim>1</dim>
				</port>
			</input>
			<output>
				<port id="1" precision="FP16">
					<dim>8</dim>
					<dim>8</dim>
					<dim>1</dim>
				</port>
			</output>
		</layer>
		<layer id="231" name="self.model.layers.0.self_attn.o_proj.weight/zero_point" type="Const" version="opset1">
			<data element_type="u4" shape="8, 8, 1" offset="1046" size="32" />
			<output>
				<port id="0" precision="U4">
					<dim>8</dim>
					<dim>8</dim>
					<dim>1</dim>
				</port>
			</output>
		</layer>
		<layer id="232" name="Convert_163037" type="Convert" version="opset1">
			<data destination_type="f16" />
			<input>
				<port id="0" precision="U4">
					<dim>8</dim>
					<dim>8</dim>
					<dim>1</dim>
				</port>
			</input>
			<output>
				<port id="1" precision="FP16">
					<dim>8</dim>
					<dim>8</dim>
					<dim>1</dim>
				</port>
			</output>
		</layer>
		<layer id="233" name="self.model.layers.0.self_attn.o_proj.weight/zero_point/subtract" type="Subtract" version="opset1">
			<data auto_broadcast="numpy" />
			<input>
				<port id="0" precision="FP16">
					<dim>8</dim>
					<dim>8</dim>
					<dim>1</dim>
				</port>
				<port id="1" precision="FP16">
					<dim>8</dim>
					<dim>8</dim>
					<dim>1</dim>
				</port>
			</input>
			<output>
				<port id="2" precision="FP16">
					<dim>8</dim>
					<dim>8</dim>
					<dim>1</dim>
				</port>
			</output>
		</layer>
		<layer id="234" name="self.model.layers.0.self_attn.o_proj.weight/scale" type="Const" version="opset1">
			<data element_type="f16" shape="8, 8, 1" offset="440" size="128" />
			<output>
				<port id="0" precision="FP16">
					<dim>8</dim>
					<dim>8</dim>
					<dim>1</dim>
				</port>
			</output>
		</layer>
		<layer id="235" name="self.model.layers.0.self_attn.o_proj.weight/fq_weights_1" type="Multiply" version="opset1">
			<data auto_broadcast="numpy" />
			<input>
				<port id="0" precision="FP16">
					<dim>8</dim>
					<dim>8</dim>
					<dim>1</dim>
				</port>
				<port id="1" precision="FP16">
					<dim>8</dim>
					<dim>8</dim>
					<dim>1</dim>
				</port>
			</input>
			<output>
				<port id="2" precision="FP16">
					<dim>8</dim>
					<dim>8</dim>
					<dim>1</dim>
				</port>
			</output>
		</layer>
		<layer id="236" name="Constant_163042" type="Const" version="opset1">
			<data element_type="i64" shape="2" offset="568" size="16" />
			<output>
				<port id="0" precision="I64">
					<dim>2</dim>
				</port>
			</output>
		</layer>
		<layer id="237" name="Reshape_163043" type="Reshape" version="opset1">
			<data special_zero="false" />
			<input>
				<port id="0" precision="FP16">
					<dim>8</dim>
					<dim>8</dim>
					<dim>1</dim>
				</port>
				<port id="1" precision="I64">
					<dim>2</dim>
				</port>
			</input>
			<output>
				<port id="2" precision="FP16">
					<dim>8</dim>
					<dim>8</dim>
				</port>
			</output>
		</layer>
		<layer id="238" name="self.model.layers.0.self_attn.o_proj.weight/fq_weights_1/convert" type="Convert" version="opset1">
			<data destination_type="f32" />
			<input>
				<port id="0" precision="FP16">
					<dim>8</dim>
					<dim>8</dim>
				</port>
			</input>
			<output>
				<port id="1" precision="FP32">
					<dim>8</dim>
					<dim>8</dim>
				</port>
			</output>
		</layer>
		<layer id="239" name="__module.model.layers.0.self_attn.o_proj/aten::linear/MatMul" type="MatMul" version="opset1">
			<data transpose_a="false" transpose_b="true" />
			<input>
				<port id="0" precision="FP32">
					<dim>-1</dim>
					<dim>-1</dim>
					<dim>-1</dim>
				</port>
				<port id="1" precision="FP32">
					<dim>8</dim>
					<dim>8</dim>
				</port>
			</input>
			<output>
				<port id="2" precision="FP32" names="214,hidden_states.17">
					<dim>-1</dim>
					<dim>-1</dim>
					<dim>8</dim>
				</port>
			</output>
		</layer>
		<layer id="240" name="__module.model.layers.0/aten::add/Add" type="Add" version="opset1">
			<data auto_broadcast="numpy" />
			<input>
				<port id="0" precision="FP32">
					<dim>-1</dim>
					<dim>-1</dim>
					<dim>8</dim>
				</port>
				<port id="1" precision="FP32">
					<dim>-1</dim>
					<dim>-1</dim>
					<dim>8</dim>
				</port>
			</input>
			<output>
				<port id="2" precision="FP32" names="215,217,228,hidden_states.19,hidden_states.21">
					<dim>-1</dim>
					<dim>-1</dim>
					<dim>8</dim>
				</port>
			</output>
		</layer>
		<layer id="241" name="Constant_161271" type="Const" version="opset1">
			<data element_type="f32" shape="1, 1, 1" offset="356" size="4" />
			<output>
				<port id="0" precision="FP32">
					<dim>1</dim>
					<dim>1</dim>
					<dim>1</dim>
				</port>
			</output>
		</layer>
		<layer id="242" name="Constant_161269" type="Const" version="opset1">
			<data element_type="f32" shape="1, 1, 1" offset="360" size="4" />
			<output>
				<port id="0" precision="FP32">
					<dim>1</dim>
					<dim>1</dim>
					<dim>1</dim>
				</port>
			</output>
		</layer>
		<layer id="243" name="__module.model.layers.0.post_attention_layernorm/aten::pow/Power" type="Power" version="opset1">
			<data auto_broadcast="numpy" />
			<input>
				<port id="0" precision="FP32">
					<dim>-1</dim>
					<dim>-1</dim>
					<dim>8</dim>
				</port>
				<port id="1" precision="FP32">
					<dim>1</dim>
					<dim>1</dim>
					<dim>1</dim>
				</port>
			</input>
			<output>
				<port id="2" precision="FP32" names="218">
					<dim>-1</dim>
					<dim>-1</dim>
					<dim>8</dim>
				</port>
			</output>
		</layer>
		<layer id="244" name="Constant_149057" type="Const" version="opset1">
			<data element_type="i64" shape="1" offset="364" size="8" />
			<output>
				<port id="0" precision="I64" names="219">
					<dim>1</dim>
				</port>
			</output>
		</layer>
		<layer id="245" name="__module.model.layers.0.post_attention_layernorm/aten::mean/ReduceMean" type="ReduceMean" version="opset1">
			<data keep_dims="true" />
			<input>
				<port id="0" precision="FP32">
					<dim>-1</dim>
					<dim>-1</dim>
					<dim>8</dim>
				</port>
				<port id="1" precision="I64">
					<dim>1</dim>
				</port>
			</input>
			<output>
				<port id="2" precision="FP32" names="220,variance.3">
					<dim>-1</dim>
					<dim>-1</dim>
					<dim>1</dim>
				</port>
			</output>
		</layer>
		<layer id="246" name="Constant_161270" type="Const" version="opset1">
			<data element_type="f32" shape="1, 1, 1" offset="372" size="4" />
			<output>
				<port id="0" precision="FP32">
					<dim>1</dim>
					<dim>1</dim>
					<dim>1</dim>
				</port>
			</output>
		</layer>
		<layer id="247" name="__module.model.layers.0.post_attention_layernorm/aten::add/Add" type="Add" version="opset1">
			<data auto_broadcast="numpy" />
			<input>
				<port id="0" precision="FP32">
					<dim>-1</dim>
					<dim>-1</dim>
					<dim>1</dim>
				</port>
				<port id="1" precision="FP32">
					<dim>1</dim>
					<dim>1</dim>
					<dim>1</dim>
				</port>
			</input>
			<output>
				<port id="2" precision="FP32" names="221">
					<dim>-1</dim>
					<dim>-1</dim>
					<dim>1</dim>
				</port>
			</output>
		</layer>
		<layer id="248" name="__module.model.layers.0.post_attention_layernorm/aten::rsqrt/Sqrt" type="Sqrt" version="opset1">
			<input>
				<port id="0" precision="FP32">
					<dim>-1</dim>
					<dim>-1</dim>
					<dim>1</dim>
				</port>
			</input>
			<output>
				<port id="1" precision="FP32">
					<dim>-1</dim>
					<dim>-1</dim>
					<dim>1</dim>
				</port>
			</output>
		</layer>
		<layer id="249" name="__module.model.layers.0.post_attention_layernorm/aten::rsqrt/Divide" type="Divide" version="opset1">
			<data auto_broadcast="numpy" m_pythondiv="true" />
			<input>
				<port id="0" precision="FP32">
					<dim>1</dim>
					<dim>1</dim>
					<dim>1</dim>
				</port>
				<port id="1" precision="FP32">
					<dim>-1</dim>
					<dim>-1</dim>
					<dim>1</dim>
				</port>
			</input>
			<output>
				<port id="2" precision="FP32" names="222">
					<dim>-1</dim>
					<dim>-1</dim>
					<dim>1</dim>
				</port>
			</output>
		</layer>
		<layer id="250" name="__module.model.layers.0.post_attention_layernorm/aten::mul/Multiply" type="Multiply" version="opset1">
			<data auto_broadcast="numpy" />
			<input>
				<port id="0" precision="FP32">
					<dim>-1</dim>
					<dim>-1</dim>
					<dim>8</dim>
				</port>
				<port id="1" precision="FP32">
					<dim>-1</dim>
					<dim>-1</dim>
					<dim>1</dim>
				</port>
			</input>
			<output>
				<port id="2" precision="FP32" names="223,224,225,227,hidden_states.23,hidden_states.25">
					<dim>-1</dim>
					<dim>-1</dim>
					<dim>8</dim>
				</port>
			</output>
		</layer>
		<layer id="251" name="Abs_174117" type="Abs" version="opset1">
			<input>
				<port id="0" precision="FP32">
					<dim>-1</dim>
					<dim>-1</dim>
					<dim>8</dim>
				</port>
			</input>
			<output>
				<port id="1" precision="FP32">
					<dim>-1</dim>
					<dim>-1</dim>
					<dim>8</dim>
				</port>
			</output>
		</layer>
		<layer id="252" name="MatMul_149091/sparsity_threshold" type="Const" version="opset1">
			<data element_type="f32" shape="1, 1, 1" offset="1078" size="4" />
			<output>
				<port id="0" precision="FP32">
					<dim>1</dim>
					<dim>1</dim>
					<dim>1</dim>
				</port>
			</output>
		</layer>
		<layer id="253" name="LessEqual_174118" type="LessEqual" version="opset1">
			<data auto_broadcast="numpy" />
			<input>
				<port id="0" precision="FP32">
					<dim>-1</dim>
					<dim>-1</dim>
					<dim>8</dim>
				</port>
				<port id="1" precision="FP32">
					<dim>1</dim>
					<dim>1</dim>
					<dim>1</dim>
				</port>
			</input>
			<output>
				<port id="2" precision="BOOL">
					<dim>-1</dim>
					<dim>-1</dim>
					<dim>8</dim>
				</port>
			</output>
		</layer>
		<layer id="254" name="Constant_174116" type="Const" version="opset1">
			<data element_type="f32" shape="" offset="352" size="4" />
			<output>
				<port id="0" precision="FP32" />
			</output>
		</layer>
		<layer id="255" name="MatMul_149091/sparse_input" type="Select" version="opset1">
			<data auto_broadcast="numpy" />
			<input>
				<port id="0" precision="BOOL">
					<dim>-1</dim>
					<dim>-1</dim>
					<dim>8</dim>
				</port>
				<port id="1" precision="FP32" />
				<port id="2" precision="FP32">
					<dim>-1</dim>
					<dim>-1</dim>
					<dim>8</dim>
				</port>
			</input>
			<output>
				<port id="3" precision="FP32">
					<dim>-1</dim>
					<dim>-1</dim>
					<dim>8</dim>
				</port>
			</output>
		</layer>
		<layer id="256" name="self.model.layers.0.mlp.gate_proj.weight" type="Const" version="opset1">
			<data element_type="u4" shape="16, 8, 1" offset="1082" size="64" />
			<output>
				<port id="0" precision="U4">
					<dim>16</dim>
					<dim>8</dim>
					<dim>1</dim>
				</port>
			</output>
		</layer>
		<layer id="257" name="Convert_162969" type="Convert" version="opset1">
			<data destination_type="f16" />
			<input>
				<port id="0" precision="U4">
					<dim>16</dim>
					<dim>8</dim>
					<dim>1</dim>
				</port>
			</input>
			<output>
				<port id="1" precision="FP16">
					<dim>16</dim>
					<dim>8</dim>
					<dim>1</dim>
				</port>
			</output>
		</layer>
		<layer id="258" name="self.model.layers.0.mlp.gate_proj.weight/zero_point" type="Const" version="opset1">
			<data element_type="u4" shape="16, 8, 1" offset="1146" size="64" />
			<output>
				<port id="0" precision="U4">
					<dim>16</dim>
					<dim>8</dim>
					<dim>1</dim>
				</port>
			</output>
		</layer>
		<layer id="259" name="Convert_162971" type="Convert" version="opset1">
			<data destination_type="f16" />
			<input>
				<port id="0" precision="U4">
					<dim>16</dim>
					<dim>8</dim>
					<dim>1</dim>
				</port>
			</input>
			<output>
				<port id="1" precision="FP16">
					<dim>16</dim>
					<dim>8</dim>
					<dim>1</dim>
				</port>
			</output>
		</layer>
		<layer id="260" name="self.model.layers.0.mlp.gate_proj.weight/zero_point/subtract" type="Subtract" version="opset1">
			<data auto_broadcast="numpy" />
			<input>
				<port id="0" precision="FP16">
					<dim>16</dim>
					<dim>8</dim>
					<dim>1</dim>
				</port>
				<port id="1" precision="FP16">
					<dim>16</dim>
					<dim>8</dim>
					<dim>1</dim>
				</port>
			</input>
			<output>
				<port id="2" precision="FP16">
					<dim>16</dim>
					<dim>8</dim>
					<dim>1</dim>
				</port>
			</output>
		</layer>
		<layer id="261" name="self.model.layers.0.mlp.gate_proj.weight/scale" type="Const" version="opset1">
			<data element_type="f16" shape="16, 8, 1" offset="1210" size="256" />
			<output>
				<port id="0" precision="FP16">
					<dim>16</dim>
					<dim>8</dim>
					<dim>1</dim>
				</port>
			</output>
		</layer>
		<layer id="262" name="self.model.layers.0.mlp.gate_proj.weight/fq_weights_1" type="Multiply" version="opset1">
			<data auto_broadcast="numpy" />
			<input>
				<port id="0" precision="FP16">
					<dim>16</dim>
					<dim>8</dim>
					<dim>1</dim>
				</port>
				<port id="1" precision="FP16">
					<dim>16</dim>
					<dim>8</dim>
					<dim>1</dim>
				</port>
			</input>
			<output>
				<port id="2" precision="FP16">
					<dim>16</dim>
					<dim>8</dim>
					<dim>1</dim>
				</port>
			</output>
		</layer>
		<layer id="263" name="Constant_162976" type="Const" version="opset1">
			<data element_type="i64" shape="2" offset="1466" size="16" />
			<output>
				<port id="0" precision="I64">
					<dim>2</dim>
				</port>
			</output>
		</layer>
		<layer id="264" name="Reshape_162977" type="Reshape" version="opset1">
			<data special_zero="false" />
			<input>
				<port id="0" precision="FP16">
					<dim>16</dim>
					<dim>8</dim>
					<dim>1</dim>
				</port>
				<port id="1" precision="I64">
					<dim>2</dim>
				</port>
			</input>
			<output>
				<port id="2" precision="FP16">
					<dim>16</dim>
					<dim>8</dim>
				</port>
			</output>
		</layer>
		<layer id="265" name="self.model.layers.0.mlp.gate_proj.weight/fq_weights_1/convert" type="Convert" version="opset1">
			<data destination_type="f32" />
			<input>
				<port id="0" precision="FP16">
					<dim>16</dim>
					<dim>8</dim>
				</port>
			</input>
			<output>
				<port id="1" precision="FP32">
					<dim>16</dim>
					<dim>8</dim>
				</port>
			</output>
		</layer>
		<layer id="266" name="__module.model.layers.0.mlp.gate_proj/aten::linear/MatMul" type="MatMul" version="opset1">
			<data transpose_a="false" transpose_b="true" />
			<input>
				<port id="0" precision="FP32">
					<dim>-1</dim>
					<dim>-1</dim>
					<dim>8</dim>
				</port>
				<port id="1" precision="FP32">
					<dim>16</dim>
					<dim>8</dim>
				</port>
			</input>
			<output>
				<port id="2" precision="FP32" names="233,input.5">
					<dim>-1</dim>
					<dim>-1</dim>
					<dim>16</dim>
				</port>
			</output>
		</layer>
		<layer id="267" name="__module.model.layers.0.mlp.act_fn/aten::silu/Swish" type="Swish" version="opset4">
			<input>
				<port id="0" precision="FP32">
					<dim>-1</dim>
					<dim>-1</dim>
					<dim>16</dim>
				</port>
			</input>
			<output>
				<port id="1" precision="FP32" names="234">
					<dim>-1</dim>
					<dim>-1</dim>
					<dim>16</dim>
				</port>
			</output>
		</layer>
		<layer id="268" name="Abs_174124" type="Abs" version="opset1">
			<input>
				<port id="0" precision="FP32">
					<dim>-1</dim>
					<dim>-1</dim>
					<dim>8</dim>
				</port>
			</input>
			<output>
				<port id="1" precision="FP32">
					<dim>-1</dim>
					<dim>-1</dim>
					<dim>8</dim>
				</port>
			</output>
		</layer>
		<layer id="269" name="MatMul_149095/sparsity_threshold" type="Const" version="opset1">
			<data element_type="f32" shape="1, 1, 1" offset="1482" size="4" />
			<output>
				<port id="0" precision="FP32">
					<dim>1</dim>
					<dim>1</dim>
					<dim>1</dim>
				</port>
			</output>
		</layer>
		<layer id="270" name="LessEqual_174125" type="LessEqual" version="opset1">
			<data auto_broadcast="numpy" />
			<input>
				<port id="0" precision="FP32">
					<dim>-1</dim>
					<dim>-1</dim>
					<dim>8</dim>
				</port>
				<port id="1" precision="FP32">
					<dim>1</dim>
					<dim>1</dim>
					<dim>1</dim>
				</port>
			</input>
			<output>
				<port id="2" precision="BOOL">
					<dim>-1</dim>
					<dim>-1</dim>
					<dim>8</dim>
				</port>
			</output>
		</layer>
		<layer id="271" name="Constant_174123" type="Const" version="opset1">
			<data element_type="f32" shape="" offset="352" size="4" />
			<output>
				<port id="0" precision="FP32" />
			</output>
		</layer>
		<layer id="272" name="MatMul_149095/sparse_input" type="Select" version="opset1">
			<data auto_broadcast="numpy" />
			<input>
				<port id="0" precision="BOOL">
					<dim>-1</dim>
					<dim>-1</dim>
					<dim>8</dim>
				</port>
				<port id="1" precision="FP32" />
				<port id="2" precision="FP32">
					<dim>-1</dim>
					<dim>-1</dim>
					<dim>8</dim>
				</port>
			</input>
			<output>
				<port id="3" precision="FP32">
					<dim>-1</dim>
					<dim>-1</dim>
					<dim>8</dim>
				</port>
			</output>
		</layer>
		<layer id="273" name="self.model.layers.0.mlp.up_proj.weight" type="Const" version="opset1">
			<data element_type="u4" shape="16, 8, 1" offset="1486" size="64" />
			<output>
				<port id="0" precision="U4">
					<dim>16</dim>
					<dim>8</dim>
					<dim>1</dim>
				</port>
			</output>
		</layer>
		<layer id="274" name="Convert_162958" type="Convert" version="opset1">
			<data destination_type="f16" />
			<input>
				<port id="0" precision="U4">
					<dim>16</dim>
					<dim>8</dim>
					<dim>1</dim>
				</port>
			</input>
			<output>
				<port id="1" precision="FP16">
					<dim>16</dim>
					<dim>8</dim>
					<dim>1</dim>
				</port>
			</output>
		</layer>
		<layer id="275" name="self.model.layers.0.mlp.up_proj.weight/zero_point" type="Const" version="opset1">
			<data element_type="u4" shape="16, 8, 1" offset="1550" size="64" />
			<output>
				<port id="0" precision="U4">
					<dim>16</dim>
					<dim>8</dim>
					<dim>1</dim>
				</port>
			</output>
		</layer>
		<layer id="276" name="Convert_162960" type="Convert" version="opset1">
			<data destination_type="f16" />
			<input>
				<port id="0" precision="U4">
					<dim>16</dim>
					<dim>8</dim>
					<dim>1</dim>
				</port>
			</input>
			<output>
				<port id="1" precision="FP16">
					<dim>16</dim>
					<dim>8</dim>
					<dim>1</dim>
				</port>
			</output>
		</layer>
		<layer id="277" name="self.model.layers.0.mlp.up_proj.weight/zero_point/subtract" type="Subtract" version="opset1">
			<data auto_broadcast="numpy" />
			<input>
				<port id="0" precision="FP16">
					<dim>16</dim>
					<dim>8</dim>
					<dim>1</dim>
				</port>
				<port id="1" precision="FP16">
					<dim>16</dim>
					<dim>8</dim>
					<dim>1</dim>
				</port>
			</input>
			<output>
				<port id="2" precision="FP16">
					<dim>16</dim>
					<dim>8</dim>
					<dim>1</dim>
				</port>
			</output>
		</layer>
		<layer id="278" name="self.model.layers.0.mlp.up_proj.weight/scale" type="Const" version="opset1">
			<data element_type="f16" shape="16, 8, 1" offset="1210" size="256" />
			<output>
				<port id="0" precision="FP16">
					<dim>16</dim>
					<dim>8</dim>
					<dim>1</dim>
				</port>
			</output>
		</layer>
		<layer id="279" name="self.model.layers.0.mlp.up_proj.weight/fq_weights_1" type="Multiply" version="opset1">
			<data auto_broadcast="numpy" />
			<input>
				<port id="0" precision="FP16">
					<dim>16</dim>
					<dim>8</dim>
					<dim>1</dim>
				</port>
				<port id="1" precision="FP16">
					<dim>16</dim>
					<dim>8</dim>
					<dim>1</dim>
				</port>
			</input>
			<output>
				<port id="2" precision="FP16">
					<dim>16</dim>
					<dim>8</dim>
					<dim>1</dim>
				</port>
			</output>
		</layer>
		<layer id="280" name="Constant_162965" type="Const" version="opset1">
			<data element_type="i64" shape="2" offset="1466" size="16" />
			<output>
				<port id="0" precision="I64">
					<dim>2</dim>
				</port>
			</output>
		</layer>
		<layer id="281" name="Reshape_162966" type="Reshape" version="opset1">
			<data special_zero="false" />
			<input>
				<port id="0" precision="FP16">
					<dim>16</dim>
					<dim>8</dim>
					<dim>1</dim>
				</port>
				<port id="1" precision="I64">
					<dim>2</dim>
				</port>
			</input>
			<output>
				<port id="2" precision="FP16">
					<dim>16</dim>
					<dim>8</dim>
				</port>
			</output>
		</layer>
		<layer id="282" name="self.model.layers.0.mlp.up_proj.weight/fq_weights_1/convert" type="Convert" version="opset1">
			<data destination_type="f32" />
			<input>
				<port id="0" precision="FP16">
					<dim>16</dim>
					<dim>8</dim>
				</port>
			</input>
			<output>
				<port id="1" precision="FP32">
					<dim>16</dim>
					<dim>8</dim>
				</port>
			</output>
		</layer>
		<layer id="283" name="__module.model.layers.0.mlp.up_proj/aten::linear/MatMul" type="MatMul" version="opset1">
			<data transpose_a="false" transpose_b="true" />
			<input>
				<port id="0" precision="FP32">
					<dim>-1</dim>
					<dim>-1</dim>
					<dim>8</dim>
				</port>
				<port id="1" precision="FP32">
					<dim>16</dim>
					<dim>8</dim>
				</port>
			</input>
			<output>
				<port id="2" precision="FP32" names="236">
					<dim>-1</dim>
					<dim>-1</dim>
					<dim>16</dim>
				</port>
			</output>
		</layer>
		<layer id="284" name="__module.model.layers.0.mlp/aten::mul/Multiply" type="Multiply" version="opset1">
			<data auto_broadcast="numpy" />
			<input>
				<port id="0" precision="FP32">
					<dim>-1</dim>
					<dim>-1</dim>
					<dim>16</dim>
				</port>
				<port id="1" precision="FP32">
					<dim>-1</dim>
					<dim>-1</dim>
					<dim>16</dim>
				</port>
			</input>
			<output>
				<port id="2" precision="FP32" names="237">
					<dim>-1</dim>
					<dim>-1</dim>
					<dim>16</dim>
				</port>
			</output>
		</layer>
		<layer id="285" name="Abs_174145" type="Abs" version="opset1">
			<input>
				<port id="0" precision="FP32">
					<dim>-1</dim>
					<dim>-1</dim>
					<dim>16</dim>
				</port>
			</input>
			<output>
				<port id="1" precision="FP32">
					<dim>-1</dim>
					<dim>-1</dim>
					<dim>16</dim>
				</port>
			</output>
		</layer>
		<layer id="286" name="MatMul_149102/sparsity_threshold" type="Const" version="opset1">
			<data element_type="f32" shape="1, 1, 1" offset="1614" size="4" />
			<output>
				<port id="0" precision="FP32">
					<dim>1</dim>
					<dim>1</dim>
					<dim>1</dim>
				</port>
			</output>
		</layer>
		<layer id="287" name="LessEqual_174146" type="LessEqual" version="opset1">
			<data auto_broadcast="numpy" />
			<input>
				<port id="0" precision="FP32">
					<dim>-1</dim>
					<dim>-1</dim>
					<dim>16</dim>
				</port>
				<port id="1" precision="FP32">
					<dim>1</dim>
					<dim>1</dim>
					<dim>1</dim>
				</port>
			</input>
			<output>
				<port id="2" precision="BOOL">
					<dim>-1</dim>
					<dim>-1</dim>
					<dim>16</dim>
				</port>
			</output>
		</layer>
		<layer id="288" name="Constant_174144" type="Const" version="opset1">
			<data element_type="f32" shape="" offset="352" size="4" />
			<output>
				<port id="0" precision="FP32" />
			</output>
		</layer>
		<layer id="289" name="MatMul_149102/sparse_input" type="Select" version="opset1">
			<data auto_broadcast="numpy" />
			<input>
				<port id="0" precision="BOOL">
					<dim>-1</dim>
					<dim>-1</dim>
					<dim>16</dim>
				</port>
				<port id="1" precision="FP32" />
				<port id="2" precision="FP32">
					<dim>-1</dim>
					<dim>-1</dim>
					<dim>16</dim>
				</port>
			</input>
			<output>
				<port id="3" precision="FP32">
					<dim>-1</dim>
					<dim>-1</dim>
					<dim>16</dim>
				</port>
			</output>
		</layer>
		<layer id="290" name="self.model.layers.0.mlp.down_proj.weight" type="Const" version="opset1">
			<data element_type="u4" shape="8, 16, 1" offset="1618" size="64" />
			<output>
				<port id="0" precision="U4">
					<dim>8</dim>
					<dim>16</dim>
					<dim>1</dim>
				</port>
			</output>
		</layer>
		<layer id="291" name="Convert_162980" type="Convert" version="opset1">
			<data destination_type="f16" />
			<input>
				<port id="0" precision="U4">
					<dim>8</dim>
					<dim>16</dim>
					<dim>1</dim>
				</port>
			</input>
			<output>
				<port id="1" precision="FP16">
					<dim>8</dim>
					<dim>16</dim>
					<dim>1</dim>
				</port>
			</output>
		</layer>
		<layer id="292" name="self.model.layers.0.mlp.down_proj.weight/zero_point" type="Const" version="opset1">
			<data element_type="u4" shape="8, 16, 1" offset="1682" size="64" />
			<output>
				<port id="0" precision="U4">
					<dim>8</dim>
					<dim>16</dim>
					<dim>1</dim>
				</port>
			</output>
		</layer>
		<layer id="293" name="Convert_162982" type="Convert" version="opset1">
			<data destination_type="f16" />
			<input>
				<port id="0" precision="U4">
					<dim>8</dim>
					<dim>16</dim>
					<dim>1</dim>
				</port>
			</input>
			<output>
				<port id="1" precision="FP16">
					<dim>8</dim>
					<dim>16</dim>
					<dim>1</dim>
				</port>
			</output>
		</layer>
		<layer id="294" name="self.model.layers.0.mlp.down_proj.weight/zero_point/subtract" type="Subtract" version="opset1">
			<data auto_broadcast="numpy" />
			<input>
				<port id="0" precision="FP16">
					<dim>8</dim>
					<dim>16</dim>
					<dim>1</dim>
				</port>
				<port id="1" precision="FP16">
					<dim>8</dim>
					<dim>16</dim>
					<dim>1</dim>
				</port>
			</input>
			<output>
				<port id="2" precision="FP16">
					<dim>8</dim>
					<dim>16</dim>
					<dim>1</dim>
				</port>
			</output>
		</layer>
		<layer id="295" name="self.model.layers.0.mlp.down_proj.weight/scale" type="Const" version="opset1">
			<data element_type="f16" shape="8, 16, 1" offset="1210" size="256" />
			<output>
				<port id="0" precision="FP16">
					<dim>8</dim>
					<dim>16</dim>
					<dim>1</dim>
				</port>
			</output>
		</layer>
		<layer id="296" name="self.model.layers.0.mlp.down_proj.weight/fq_weights_1" type="Multiply" version="opset1">
			<data auto_broadcast="numpy" />
			<input>
				<port id="0" precision="FP16">
					<dim>8</dim>
					<dim>16</dim>
					<dim>1</dim>
				</port>
				<port id="1" precision="FP16">
					<dim>8</dim>
					<dim>16</dim>
					<dim>1</dim>
				</port>
			</input>
			<output>
				<port id="2" precision="FP16">
					<dim>8</dim>
					<dim>16</dim>
					<dim>1</dim>
				</port>
			</output>
		</layer>
		<layer id="297" name="Constant_162987" type="Const" version="opset1">
			<data element_type="i64" shape="2" offset="1746" size="16" />
			<output>
				<port id="0" precision="I64">
					<dim>2</dim>
				</port>
			</output>
		</layer>
		<layer id="298" name="Reshape_162988" type="Reshape" version="opset1">
			<data special_zero="false" />
			<input>
				<port id="0" precision="FP16">
					<dim>8</dim>
					<dim>16</dim>
					<dim>1</dim>
				</port>
				<port id="1" precision="I64">
					<dim>2</dim>
				</port>
			</input>
			<output>
				<port id="2" precision="FP16">
					<dim>8</dim>
					<dim>16</dim>
				</port>
			</output>
		</layer>
		<layer id="299" name="self.model.layers.0.mlp.down_proj.weight/fq_weights_1/convert" type="Convert" version="opset1">
			<data destination_type="f32" />
			<input>
				<port id="0" precision="FP16">
					<dim>8</dim>
					<dim>16</dim>
				</port>
			</input>
			<output>
				<port id="1" precision="FP32">
					<dim>8</dim>
					<dim>16</dim>
				</port>
			</output>
		</layer>
		<layer id="300" name="__module.model.layers.0.mlp.down_proj/aten::linear/MatMul" type="MatMul" version="opset1">
			<data transpose_a="false" transpose_b="true" />
			<input>
				<port id="0" precision="FP32">
					<dim>-1</dim>
					<dim>-1</dim>
					<dim>16</dim>
				</port>
				<port id="1" precision="FP32">
					<dim>8</dim>
					<dim>16</dim>
				</port>
			</input>
			<output>
				<port id="2" precision="FP32" names="239,hidden_states.27">
					<dim>-1</dim>
					<dim>-1</dim>
					<dim>8</dim>
				</port>
			</output>
		</layer>
		<layer id="301" name="__module.model.layers.0/aten::add/Add_1" type="Add" version="opset1">
			<data auto_broadcast="numpy" />
			<input>
				<port id="0" precision="FP32">
					<dim>-1</dim>
					<dim>-1</dim>
					<dim>8</dim>
				</port>
				<port id="1" precision="FP32">
					<dim>-1</dim>
					<dim>-1</dim>
					<dim>8</dim>
				</port>
			</input>
			<output>
				<port id="2" precision="FP32" names="240,246,257,hidden_states.29,hidden_states.31">
					<dim>-1</dim>
					<dim>-1</dim>
					<dim>8</dim>
				</port>
			</output>
		</layer>
		<layer id="302" name="Constant_161274" type="Const" version="opset1">
			<data element_type="f32" shape="1, 1, 1" offset="356" size="4" />
			<output>
				<port id="0" precision="FP32">
					<dim>1</dim>
					<dim>1</dim>
					<dim>1</dim>
				</port>
			</output>
		</layer>
		<layer id="303" name="Constant_161272" type="Const" version="opset1">
			<data element_type="f32" shape="1, 1, 1" offset="360" size="4" />
			<output>
				<port id="0" precision="FP32">
					<dim>1</dim>
					<dim>1</dim>
					<dim>1</dim>
				</port>
			</output>
		</layer>
		<layer id="304" name="__module.model.layers.1.input_layernorm/aten::pow/Power" type="Power" version="opset1">
			<data auto_broadcast="numpy" />
			<input>
				<port id="0" precision="FP32">
					<dim>-1</dim>
					<dim>-1</dim>
					<dim>8</dim>
				</port>
				<port id="1" precision="FP32">
					<dim>1</dim>
					<dim>1</dim>
					<dim>1</dim>
				</port>
			</input>
			<output>
				<port id="2" precision="FP32" names="247">
					<dim>-1</dim>
					<dim>-1</dim>
					<dim>8</dim>
				</port>
			</output>
		</layer>
		<layer id="305" name="Constant_149126" type="Const" version="opset1">
			<data element_type="i64" shape="1" offset="364" size="8" />
			<output>
				<port id="0" precision="I64" names="248">
					<dim>1</dim>
				</port>
			</output>
		</layer>
		<layer id="306" name="__module.model.layers.1.input_layernorm/aten::mean/ReduceMean" type="ReduceMean" version="opset1">
			<data keep_dims="true" />
			<input>
				<port id="0" precision="FP32">
					<dim>-1</dim>
					<dim>-1</dim>
					<dim>8</dim>
				</port>
				<port id="1" precision="I64">
					<dim>1</dim>
				</port>
			</input>
			<output>
				<port id="2" precision="FP32" names="249,variance.5">
					<dim>-1</dim>
					<dim>-1</dim>
					<dim>1</dim>
				</port>
			</output>
		</layer>
		<layer id="307" name="Constant_161273" type="Const" version="opset1">
			<data element_type="f32" shape="1, 1, 1" offset="372" size="4" />
			<output>
				<port id="0" precision="FP32">
					<dim>1</dim>
					<dim>1</dim>
					<dim>1</dim>
				</port>
			</output>
		</layer>
		<layer id="308" name="__module.model.layers.1.input_layernorm/aten::add/Add" type="Add" version="opset1">
			<data auto_broadcast="numpy" />
			<input>
				<port id="0" precision="FP32">
					<dim>-1</dim>
					<dim>-1</dim>
					<dim>1</dim>
				</port>
				<port id="1" precision="FP32">
					<dim>1</dim>
					<dim>1</dim>
					<dim>1</dim>
				</port>
			</input>
			<output>
				<port id="2" precision="FP32" names="250">
					<dim>-1</dim>
					<dim>-1</dim>
					<dim>1</dim>
				</port>
			</output>
		</layer>
		<layer id="309" name="__module.model.layers.1.input_layernorm/aten::rsqrt/Sqrt" type="Sqrt" version="opset1">
			<input>
				<port id="0" precision="FP32">
					<dim>-1</dim>
					<dim>-1</dim>
					<dim>1</dim>
				</port>
			</input>
			<output>
				<port id="1" precision="FP32">
					<dim>-1</dim>
					<dim>-1</dim>
					<dim>1</dim>
				</port>
			</output>
		</layer>
		<layer id="310" name="__module.model.layers.1.input_layernorm/aten::rsqrt/Divide" type="Divide" version="opset1">
			<data auto_broadcast="numpy" m_pythondiv="true" />
			<input>
				<port id="0" precision="FP32">
					<dim>1</dim>
					<dim>1</dim>
					<dim>1</dim>
				</port>
				<port id="1" precision="FP32">
					<dim>-1</dim>
					<dim>-1</dim>
					<dim>1</dim>
				</port>
			</input>
			<output>
				<port id="2" precision="FP32" names="251">
					<dim>-1</dim>
					<dim>-1</dim>
					<dim>1</dim>
				</port>
			</output>
		</layer>
		<layer id="311" name="__module.model.layers.1.input_layernorm/aten::mul/Multiply" type="Multiply" version="opset1">
			<data auto_broadcast="numpy" />
			<input>
				<port id="0" precision="FP32">
					<dim>-1</dim>
					<dim>-1</dim>
					<dim>8</dim>
				</port>
				<port id="1" precision="FP32">
					<dim>-1</dim>
					<dim>-1</dim>
					<dim>1</dim>
				</port>
			</input>
			<output>
				<port id="2" precision="FP32" names="252,253,254,256,hidden_states.33,hidden_states.35,hidden_states.37">
					<dim>-1</dim>
					<dim>-1</dim>
					<dim>8</dim>
				</port>
			</output>
		</layer>
		<layer id="312" name="self.model.layers.1.self_attn.q_proj.weight" type="Const" version="opset1">
			<data element_type="u4" shape="8, 8, 1" offset="1762" size="32" />
			<output>
				<port id="0" precision="U4">
					<dim>8</dim>
					<dim>8</dim>
					<dim>1</dim>
				</port>
			</output>
		</layer>
		<layer id="313" name="Convert_163046" type="Convert" version="opset1">
			<data destination_type="f16" />
			<input>
				<port id="0" precision="U4">
					<dim>8</dim>
					<dim>8</dim>
					<dim>1</dim>
				</port>
			</input>
			<output>
				<port id="1" precision="FP16">
					<dim>8</dim>
					<dim>8</dim>
					<dim>1</dim>
				</port>
			</output>
		</layer>
		<layer id="314" name="self.model.layers.1.self_attn.q_proj.weight/zero_point" type="Const" version="opset1">
			<data element_type="u4" shape="8, 8, 1" offset="1794" size="32" />
			<output>
				<port id="0" precision="U4">
					<dim>8</dim>
					<dim>8</dim>
					<dim>1</dim>
				</port>
			</output>
		</layer>
		<layer id="315" name="Convert_163048" type="Convert" version="opset1">
			<data destination_type="f16" />
			<input>
				<port id="0" precision="U4">
					<dim>8</dim>
					<dim>8</dim>
					<dim>1</dim>
				</port>
			</input>
			<output>
				<port id="1" precision="FP16">
					<dim>8</dim>
					<dim>8</dim>
					<dim>1</dim>
				</port>
			</output>
		</layer>
		<layer id="316" name="self.model.layers.1.self_attn.q_proj.weight/zero_point/subtract" type="Subtract" version="opset1">
			<data auto_broadcast="numpy" />
			<input>
				<port id="0" precision="FP16">
					<dim>8</dim>
					<dim>8</dim>
					<dim>1</dim>
				</port>
				<port id="1" precision="FP16">
					<dim>8</dim>
					<dim>8</dim>
					<dim>1</dim>
				</port>
			</input>
			<output>
				<port id="2" precision="FP16">
					<dim>8</dim>
					<dim>8</dim>
					<dim>1</dim>
				</port>
			</output>
		</layer>
		<layer id="317" name="self.model.layers.1.self_attn.q_proj.weight/scale" type="Const" version="opset1">
			<data element_type="f16" shape="8, 8, 1" offset="440" size="128" />
			<output>
				<port id="0" precision="FP16">
					<dim>8</dim>
					<dim>8</dim>
					<dim>1</dim>
				</port>
			</output>
		</layer>
		<layer id="318" name="self.model.layers.1.self_attn.q_proj.weight/fq_weights_1" type="Multiply" version="opset1">
			<data auto_broadcast="numpy" />
			<input>
				<port id="0" precision="FP16">
					<dim>8</dim>
					<dim>8</dim>
					<dim>1</dim>
				</port>
				<port id="1" precision="FP16">
					<dim>8</dim>
					<dim>8</dim>
					<dim>1</dim>
				</port>
			</input>
			<output>
				<port id="2" precision="FP16">
					<dim>8</dim>
					<dim>8</dim>
					<dim>1</dim>
				</port>
			</output>
		</layer>
		<layer id="319" name="Constant_163053" type="Const" version="opset1">
			<data element_type="i64" shape="2" offset="568" size="16" />
			<output>
				<port id="0" precision="I64">
					<dim>2</dim>
				</port>
			</output>
		</layer>
		<layer id="320" name="Reshape_163054" type="Reshape" version="opset1">
			<data special_zero="false" />
			<input>
				<port id="0" precision="FP16">
					<dim>8</dim>
					<dim>8</dim>
					<dim>1</dim>
				</port>
				<port id="1" precision="I64">
					<dim>2</dim>
				</port>
			</input>
			<output>
				<port id="2" precision="FP16">
					<dim>8</dim>
					<dim>8</dim>
				</port>
			</output>
		</layer>
		<layer id="321" name="self.model.layers.1.self_attn.q_proj.weight/fq_weights_1/convert" type="Convert" version="opset1">
			<data destination_type="f32" />
			<input>
				<port id="0" precision="FP16">
					<dim>8</dim>
					<dim>8</dim>
				</port>
			</input>
			<output>
				<port id="1" precision="FP32">
					<dim>8</dim>
					<dim>8</dim>
				</port>
			</output>
		</layer>
		<layer id="322" name="__module.model.layers.1.self_attn.q_proj/aten::linear/MatMul" type="MatMul" version="opset1">
			<data transpose_a="false" transpose_b="true" />
			<input>
				<port id="0" precision="FP32">
					<dim>-1</dim>
					<dim>-1</dim>
					<dim>8</dim>
				</port>
				<port id="1" precision="FP32">
					<dim>8</dim>
					<dim>8</dim>
				</port>
			</input>
			<output>
				<port id="2" precision="FP32" names="266,query_states">
					<dim>-1</dim>
					<dim>-1</dim>
					<dim>8</dim>
				</port>
			</output>
		</layer>
		<layer id="323" name="Constant_162060" type="Const" version="opset1">
			<data element_type="i64" shape="4" offset="584" size="32" />
			<output>
				<port id="0" precision="I64">
					<dim>4</dim>
				</port>
			</output>
		</layer>
		<layer id="324" name="__module.model.layers.1.self_attn/aten::view/Reshape" type="Reshape" version="opset1">
			<data special_zero="true" />
			<input>
				<port id="0" precision="FP32">
					<dim>-1</dim>
					<dim>-1</dim>
					<dim>8</dim>
				</port>
				<port id="1" precision="I64">
					<dim>4</dim>
				</port>
			</input>
			<output>
				<port id="2" precision="FP32" names="272">
					<dim>-1</dim>
					<dim>-1</dim>
					<dim>2</dim>
					<dim>4</dim>
				</port>
			</output>
		</layer>
		<layer id="325" name="__module.model.layers.1.self_attn/aten::transpose/ScatterElementsUpdate" type="Const" version="opset1">
			<data element_type="i32" shape="4" offset="616" size="16" />
			<output>
				<port id="0" precision="I32">
					<dim>4</dim>
				</port>
			</output>
		</layer>
		<layer id="326" name="__module.model.layers.1.self_attn/aten::transpose/Transpose" type="Transpose" version="opset1">
			<input>
				<port id="0" precision="FP32">
					<dim>-1</dim>
					<dim>-1</dim>
					<dim>2</dim>
					<dim>4</dim>
				</port>
				<port id="1" precision="I32">
					<dim>4</dim>
				</port>
			</input>
			<output>
				<port id="2" precision="FP32" names="273,q">
					<dim>-1</dim>
					<dim>2</dim>
					<dim>-1</dim>
					<dim>4</dim>
				</port>
			</output>
		</layer>
		<layer id="327" name="__module.model.layers.1.self_attn/aten::mul/Multiply" type="Multiply" version="opset1">
			<data auto_broadcast="numpy" />
			<input>
				<port id="0" precision="FP32">
					<dim>-1</dim>
					<dim>2</dim>
					<dim>-1</dim>
					<dim>4</dim>
				</port>
				<port id="1" precision="FP32">
					<dim>1</dim>
					<dim>1</dim>
					<dim>-1</dim>
					<dim>4</dim>
				</port>
			</input>
			<output>
				<port id="2" precision="FP32" names="307">
					<dim>-1</dim>
					<dim>2</dim>
					<dim>-1</dim>
					<dim>4</dim>
				</port>
			</output>
		</layer>
		<layer id="328" name="__module.model.layers.1.self_attn/aten::size/ShapeOf_3" type="ShapeOf" version="opset3">
			<data output_type="i64" />
			<input>
				<port id="0" precision="FP32">
					<dim>-1</dim>
					<dim>2</dim>
					<dim>-1</dim>
					<dim>4</dim>
				</port>
			</input>
			<output>
				<port id="1" precision="I64">
					<dim>4</dim>
				</port>
			</output>
		</layer>
		<layer id="329" name="__module.model.layers.1.self_attn/aten::size/Constant_3" type="Const" version="opset1">
			<data element_type="i32" shape="" offset="352" size="4" />
			<output>
				<port id="0" precision="I32" />
			</output>
		</layer>
		<layer id="330" name="__module.model.layers.1.self_attn/aten::size/Gather_3" type="Gather" version="opset8">
			<data batch_dims="0" />
			<input>
				<port id="0" precision="I64">
					<dim>4</dim>
				</port>
				<port id="1" precision="I64" />
				<port id="2" precision="I32" />
			</input>
			<output>
				<port id="3" precision="I64" names="308,313" />
			</output>
		</layer>
		<layer id="331" name="__module.model.layers.1.self_attn/aten::floor_divide/Divide_1" type="Divide" version="opset1">
			<data auto_broadcast="numpy" m_pythondiv="true" />
			<input>
				<port id="0" precision="I64" />
				<port id="1" precision="I64" />
			</input>
			<output>
				<port id="2" precision="I64" />
			</output>
		</layer>
		<layer id="332" name="__module.model.layers.1.self_attn/aten::floor_divide/Floor_1" type="Floor" version="opset1">
			<input>
				<port id="0" precision="I64" />
			</input>
			<output>
				<port id="1" precision="I64" names="310,311,315,316" />
			</output>
		</layer>
		<layer id="333" name="Constant_162003" type="Const" version="opset1">
			<data element_type="i64" shape="1" offset="670" size="8" />
			<output>
				<port id="0" precision="I64">
					<dim>1</dim>
				</port>
			</output>
		</layer>
		<layer id="334" name="Reshape_162004" type="Reshape" version="opset1">
			<data special_zero="false" />
			<input>
				<port id="0" precision="I64" />
				<port id="1" precision="I64">
					<dim>1</dim>
				</port>
			</input>
			<output>
				<port id="2" precision="I64">
					<dim>1</dim>
				</port>
			</output>
		</layer>
		<layer id="335" name="__module.model.layers.1.self_attn/aten::slice/Reshape_1" type="Const" version="opset1">
			<data element_type="i64" shape="1" offset="710" size="8" />
			<output>
				<port id="0" precision="I64">
					<dim>1</dim>
				</port>
			</output>
		</layer>
		<layer id="336" name="__module.model.layers.1.self_attn/aten::slice/Reshape_2" type="Const" version="opset1">
			<data element_type="i64" shape="1" offset="670" size="8" />
			<output>
				<port id="0" precision="I64">
					<dim>1</dim>
				</port>
			</output>
		</layer>
		<layer id="337" name="__module.model.layers.1.self_attn/aten::slice/Reshape_3" type="Const" version="opset1">
			<data element_type="i64" shape="1" offset="694" size="8" />
			<output>
				<port id="0" precision="I64">
					<dim>1</dim>
				</port>
			</output>
		</layer>
		<layer id="338" name="__module.model.layers.1.self_attn/aten::slice/Slice" type="Slice" version="opset8">
			<input>
				<port id="0" precision="FP32">
					<dim>-1</dim>
					<dim>2</dim>
					<dim>-1</dim>
					<dim>4</dim>
				</port>
				<port id="1" precision="I64">
					<dim>1</dim>
				</port>
				<port id="2" precision="I64">
					<dim>1</dim>
				</port>
				<port id="3" precision="I64">
					<dim>1</dim>
				</port>
				<port id="4" precision="I64">
					<dim>1</dim>
				</port>
			</input>
			<output>
				<port id="5" precision="FP32" names="317,x2.5">
					<dim>-1</dim>
					<dim>2</dim>
					<dim>-1</dim>
					<dim>2</dim>
				</port>
			</output>
		</layer>
		<layer id="339" name="Constant_161275" type="Const" version="opset1">
			<data element_type="f32" shape="1, 1, 1, 1" offset="718" size="4" />
			<output>
				<port id="0" precision="FP32">
					<dim>1</dim>
					<dim>1</dim>
					<dim>1</dim>
					<dim>1</dim>
				</port>
			</output>
		</layer>
		<layer id="340" name="__module.model.layers.1.self_attn/aten::neg/Multiply" type="Multiply" version="opset1">
			<data auto_broadcast="numpy" />
			<input>
				<port id="0" precision="FP32">
					<dim>-1</dim>
					<dim>2</dim>
					<dim>-1</dim>
					<dim>2</dim>
				</port>
				<port id="1" precision="FP32">
					<dim>1</dim>
					<dim>1</dim>
					<dim>1</dim>
					<dim>1</dim>
				</port>
			</input>
			<output>
				<port id="2" precision="FP32" names="318">
					<dim>-1</dim>
					<dim>2</dim>
					<dim>-1</dim>
					<dim>2</dim>
				</port>
			</output>
		</layer>
		<layer id="341" name="__module.model.layers.1.self_attn/aten::slice/Reshape_4" type="Const" version="opset1">
			<data element_type="i64" shape="1" offset="662" size="8" />
			<output>
				<port id="0" precision="I64">
					<dim>1</dim>
				</port>
			</output>
		</layer>
		<layer id="342" name="__module.model.layers.1.self_attn/aten::slice/Reshape_6" type="Const" version="opset1">
			<data element_type="i64" shape="1" offset="670" size="8" />
			<output>
				<port id="0" precision="I64">
					<dim>1</dim>
				</port>
			</output>
		</layer>
		<layer id="343" name="__module.model.layers.1.self_attn/aten::slice/Reshape_7" type="Const" version="opset1">
			<data element_type="i64" shape="1" offset="694" size="8" />
			<output>
				<port id="0" precision="I64">
					<dim>1</dim>
				</port>
			</output>
		</layer>
		<layer id="344" name="__module.model.layers.1.self_attn/aten::slice/Slice_1" type="Slice" version="opset8">
			<input>
				<port id="0" precision="FP32">
					<dim>-1</dim>
					<dim>2</dim>
					<dim>-1</dim>
					<dim>4</dim>
				</port>
				<port id="1" precision="I64">
					<dim>1</dim>
				</port>
				<port id="2" precision="I64">
					<dim>1</dim>
				</port>
				<port id="3" precision="I64">
					<dim>1</dim>
				</port>
				<port id="4" precision="I64">
					<dim>1</dim>
				</port>
			</input>
			<output>
				<port id="5" precision="FP32" names="312">
					<dim>-1</dim>
					<dim>2</dim>
					<dim>-1</dim>
					<dim>2</dim>
				</port>
			</output>
		</layer>
		<layer id="345" name="__module.model.layers.1.self_attn/aten::cat/Concat" type="Concat" version="opset1">
			<data axis="-1" />
			<input>
				<port id="0" precision="FP32">
					<dim>-1</dim>
					<dim>2</dim>
					<dim>-1</dim>
					<dim>2</dim>
				</port>
				<port id="1" precision="FP32">
					<dim>-1</dim>
					<dim>2</dim>
					<dim>-1</dim>
					<dim>2</dim>
				</port>
			</input>
			<output>
				<port id="2" precision="FP32" names="320">
					<dim>-1</dim>
					<dim>2</dim>
					<dim>-1</dim>
					<dim>4</dim>
				</port>
			</output>
		</layer>
		<layer id="346" name="__module.model.layers.1.self_attn/aten::mul/Multiply_1" type="Multiply" version="opset1">
			<data auto_broadcast="numpy" />
			<input>
				<port id="0" precision="FP32">
					<dim>-1</dim>
					<dim>2</dim>
					<dim>-1</dim>
					<dim>4</dim>
				</port>
				<port id="1" precision="FP32">
					<dim>1</dim>
					<dim>1</dim>
					<dim>-1</dim>
					<dim>4</dim>
				</port>
			</input>
			<output>
				<port id="2" precision="FP32" names="321">
					<dim>-1</dim>
					<dim>2</dim>
					<dim>-1</dim>
					<dim>4</dim>
				</port>
			</output>
		</layer>
		<layer id="347" name="__module.model.layers.1.self_attn/aten::add/Add" type="Add" version="opset1">
			<data auto_broadcast="numpy" />
			<input>
				<port id="0" precision="FP32">
					<dim>-1</dim>
					<dim>2</dim>
					<dim>-1</dim>
					<dim>4</dim>
				</port>
				<port id="1" precision="FP32">
					<dim>-1</dim>
					<dim>2</dim>
					<dim>-1</dim>
					<dim>4</dim>
				</port>
			</input>
			<output>
				<port id="2" precision="FP32" names="322">
					<dim>-1</dim>
					<dim>2</dim>
					<dim>-1</dim>
					<dim>4</dim>
				</port>
			</output>
		</layer>
		<layer id="348" name="self.model.layers.1.self_attn.k_proj.weight" type="Const" version="opset1">
			<data element_type="u4" shape="4, 8, 1" offset="1826" size="16" />
			<output>
				<port id="0" precision="U4">
					<dim>4</dim>
					<dim>8</dim>
					<dim>1</dim>
				</port>
			</output>
		</layer>
		<layer id="349" name="Convert_163101" type="Convert" version="opset1">
			<data destination_type="f16" />
			<input>
				<port id="0" precision="U4">
					<dim>4</dim>
					<dim>8</dim>
					<dim>1</dim>
				</port>
			</input>
			<output>
				<port id="1" precision="FP16">
					<dim>4</dim>
					<dim>8</dim>
					<dim>1</dim>
				</port>
			</output>
		</layer>
		<layer id="350" name="self.model.layers.1.self_attn.k_proj.weight/zero_point" type="Const" version="opset1">
			<data element_type="u4" shape="4, 8, 1" offset="1842" size="16" />
			<output>
				<port id="0" precision="U4">
					<dim>4</dim>
					<dim>8</dim>
					<dim>1</dim>
				</port>
			</output>
		</layer>
		<layer id="351" name="Convert_163103" type="Convert" version="opset1">
			<data destination_type="f16" />
			<input>
				<port id="0" precision="U4">
					<dim>4</dim>
					<dim>8</dim>
					<dim>1</dim>
				</port>
			</input>
			<output>
				<port id="1" precision="FP16">
					<dim>4</dim>
					<dim>8</dim>
					<dim>1</dim>
				</port>
			</output>
		</layer>
		<layer id="352" name="self.model.layers.1.self_attn.k_proj.weight/zero_point/subtract" type="Subtract" version="opset1">
			<data auto_broadcast="numpy" />
			<input>
				<port id="0" precision="FP16">
					<dim>4</dim>
					<dim>8</dim>
					<dim>1</dim>
				</port>
				<port id="1" precision="FP16">
					<dim>4</dim>
					<dim>8</dim>
					<dim>1</dim>
				</port>
			</input>
			<output>
				<port id="2" precision="FP16">
					<dim>4</dim>
					<dim>8</dim>
					<dim>1</dim>
				</port>
			</output>
		</layer>
		<layer id="353" name="self.model.layers.1.self_attn.k_proj.weight/scale" type="Const" version="opset1">
			<data element_type="f16" shape="4, 8, 1" offset="754" size="64" />
			<output>
				<port id="0" precision="FP16">
					<dim>4</dim>
					<dim>8</dim>
					<dim>1</dim>
				</port>
			</output>
		</layer>
		<layer id="354" name="self.model.layers.1.self_attn.k_proj.weight/fq_weights_1" type="Multiply" version="opset1">
			<data auto_broadcast="numpy" />
			<input>
				<port id="0" precision="FP16">
					<dim>4</dim>
					<dim>8</dim>
					<dim>1</dim>
				</port>
				<port id="1" precision="FP16">
					<dim>4</dim>
					<dim>8</dim>
					<dim>1</dim>
				</port>
			</input>
			<output>
				<port id="2" precision="FP16">
					<dim>4</dim>
					<dim>8</dim>
					<dim>1</dim>
				</port>
			</output>
		</layer>
		<layer id="355" name="Constant_163108" type="Const" version="opset1">
			<data element_type="i64" shape="2" offset="818" size="16" />
			<output>
				<port id="0" precision="I64">
					<dim>2</dim>
				</port>
			</output>
		</layer>
		<layer id="356" name="Reshape_163109" type="Reshape" version="opset1">
			<data special_zero="false" />
			<input>
				<port id="0" precision="FP16">
					<dim>4</dim>
					<dim>8</dim>
					<dim>1</dim>
				</port>
				<port id="1" precision="I64">
					<dim>2</dim>
				</port>
			</input>
			<output>
				<port id="2" precision="FP16">
					<dim>4</dim>
					<dim>8</dim>
				</port>
			</output>
		</layer>
		<layer id="357" name="self.model.layers.1.self_attn.k_proj.weight/fq_weights_1/convert" type="Convert" version="opset1">
			<data destination_type="f32" />
			<input>
				<port id="0" precision="FP16">
					<dim>4</dim>
					<dim>8</dim>
				</port>
			</input>
			<output>
				<port id="1" precision="FP32">
					<dim>4</dim>
					<dim>8</dim>
				</port>
			</output>
		</layer>
		<layer id="358" name="__module.model.layers.1.self_attn.k_proj/aten::linear/MatMul" type="MatMul" version="opset1">
			<data transpose_a="false" transpose_b="true" />
			<input>
				<port id="0" precision="FP32">
					<dim>-1</dim>
					<dim>-1</dim>
					<dim>8</dim>
				</port>
				<port id="1" precision="FP32">
					<dim>4</dim>
					<dim>8</dim>
				</port>
			</input>
			<output>
				<port id="2" precision="FP32" names="268,key_states.5">
					<dim>-1</dim>
					<dim>-1</dim>
					<dim>4</dim>
				</port>
			</output>
		</layer>
		<layer id="359" name="Constant_162061" type="Const" version="opset1">
			<data element_type="i64" shape="4" offset="834" size="32" />
			<output>
				<port id="0" precision="I64">
					<dim>4</dim>
				</port>
			</output>
		</layer>
		<layer id="360" name="__module.model.layers.1.self_attn/aten::view/Reshape_1" type="Reshape" version="opset1">
			<data special_zero="true" />
			<input>
				<port id="0" precision="FP32">
					<dim>-1</dim>
					<dim>-1</dim>
					<dim>4</dim>
				</port>
				<port id="1" precision="I64">
					<dim>4</dim>
				</port>
			</input>
			<output>
				<port id="2" precision="FP32" names="275">
					<dim>-1</dim>
					<dim>-1</dim>
					<dim>1</dim>
					<dim>4</dim>
				</port>
			</output>
		</layer>
		<layer id="361" name="Constant_161096" type="Const" version="opset1">
			<data element_type="i64" shape="4" offset="866" size="32" />
			<output>
				<port id="0" precision="I64">
					<dim>4</dim>
				</port>
			</output>
		</layer>
		<layer id="362" name="__module.model.layers.1.self_attn/aten::transpose/Transpose_1" type="Reshape" version="opset1">
			<data special_zero="true" />
			<input>
				<port id="0" precision="FP32">
					<dim>-1</dim>
					<dim>-1</dim>
					<dim>1</dim>
					<dim>4</dim>
				</port>
				<port id="1" precision="I64">
					<dim>4</dim>
				</port>
			</input>
			<output>
				<port id="2" precision="FP32" names="276,k">
					<dim>-1</dim>
					<dim>1</dim>
					<dim>-1</dim>
					<dim>4</dim>
				</port>
			</output>
		</layer>
		<layer id="363" name="__module.model.layers.1.self_attn/aten::mul/Multiply_2" type="Multiply" version="opset1">
			<data auto_broadcast="numpy" />
			<input>
				<port id="0" precision="FP32">
					<dim>-1</dim>
					<dim>1</dim>
					<dim>-1</dim>
					<dim>4</dim>
				</port>
				<port id="1" precision="FP32">
					<dim>1</dim>
					<dim>1</dim>
					<dim>-1</dim>
					<dim>4</dim>
				</port>
			</input>
			<output>
				<port id="2" precision="FP32" names="323">
					<dim>-1</dim>
					<dim>1</dim>
					<dim>-1</dim>
					<dim>4</dim>
				</port>
			</output>
		</layer>
		<layer id="364" name="__module.model.layers.1.self_attn/aten::size/ShapeOf_5" type="ShapeOf" version="opset3">
			<data output_type="i64" />
			<input>
				<port id="0" precision="FP32">
					<dim>-1</dim>
					<dim>1</dim>
					<dim>-1</dim>
					<dim>4</dim>
				</port>
			</input>
			<output>
				<port id="1" precision="I64">
					<dim>4</dim>
				</port>
			</output>
		</layer>
		<layer id="365" name="__module.model.layers.1.self_attn/aten::size/Constant_5" type="Const" version="opset1">
			<data element_type="i32" shape="" offset="352" size="4" />
			<output>
				<port id="0" precision="I32" />
			</output>
		</layer>
		<layer id="366" name="__module.model.layers.1.self_attn/aten::size/Gather_5" type="Gather" version="opset8">
			<data batch_dims="0" />
			<input>
				<port id="0" precision="I64">
					<dim>4</dim>
				</port>
				<port id="1" precision="I64" />
				<port id="2" precision="I32" />
			</input>
			<output>
				<port id="3" precision="I64" names="324,329" />
			</output>
		</layer>
		<layer id="367" name="__module.model.layers.1.self_attn/aten::floor_divide/Divide_3" type="Divide" version="opset1">
			<data auto_broadcast="numpy" m_pythondiv="true" />
			<input>
				<port id="0" precision="I64" />
				<port id="1" precision="I64" />
			</input>
			<output>
				<port id="2" precision="I64" />
			</output>
		</layer>
		<layer id="368" name="__module.model.layers.1.self_attn/aten::floor_divide/Floor_3" type="Floor" version="opset1">
			<input>
				<port id="0" precision="I64" />
			</input>
			<output>
				<port id="1" precision="I64" names="326,327,331,332" />
			</output>
		</layer>
		<layer id="369" name="Constant_161962" type="Const" version="opset1">
			<data element_type="i64" shape="1" offset="670" size="8" />
			<output>
				<port id="0" precision="I64">
					<dim>1</dim>
				</port>
			</output>
		</layer>
		<layer id="370" name="Reshape_161963" type="Reshape" version="opset1">
			<data special_zero="false" />
			<input>
				<port id="0" precision="I64" />
				<port id="1" precision="I64">
					<dim>1</dim>
				</port>
			</input>
			<output>
				<port id="2" precision="I64">
					<dim>1</dim>
				</port>
			</output>
		</layer>
		<layer id="371" name="__module.model.layers.1.self_attn/aten::slice/Reshape_9" type="Const" version="opset1">
			<data element_type="i64" shape="1" offset="710" size="8" />
			<output>
				<port id="0" precision="I64">
					<dim>1</dim>
				</port>
			</output>
		</layer>
		<layer id="372" name="__module.model.layers.1.self_attn/aten::slice/Reshape_10" type="Const" version="opset1">
			<data element_type="i64" shape="1" offset="670" size="8" />
			<output>
				<port id="0" precision="I64">
					<dim>1</dim>
				</port>
			</output>
		</layer>
		<layer id="373" name="__module.model.layers.1.self_attn/aten::slice/Reshape_11" type="Const" version="opset1">
			<data element_type="i64" shape="1" offset="694" size="8" />
			<output>
				<port id="0" precision="I64">
					<dim>1</dim>
				</port>
			</output>
		</layer>
		<layer id="374" name="__module.model.layers.1.self_attn/aten::slice/Slice_2" type="Slice" version="opset8">
			<input>
				<port id="0" precision="FP32">
					<dim>-1</dim>
					<dim>1</dim>
					<dim>-1</dim>
					<dim>4</dim>
				</port>
				<port id="1" precision="I64">
					<dim>1</dim>
				</port>
				<port id="2" precision="I64">
					<dim>1</dim>
				</port>
				<port id="3" precision="I64">
					<dim>1</dim>
				</port>
				<port id="4" precision="I64">
					<dim>1</dim>
				</port>
			</input>
			<output>
				<port id="5" precision="FP32" names="333,x2">
					<dim>-1</dim>
					<dim>1</dim>
					<dim>-1</dim>
					<dim>2</dim>
				</port>
			</output>
		</layer>
		<layer id="375" name="Constant_161276" type="Const" version="opset1">
			<data element_type="f32" shape="1, 1, 1, 1" offset="718" size="4" />
			<output>
				<port id="0" precision="FP32">
					<dim>1</dim>
					<dim>1</dim>
					<dim>1</dim>
					<dim>1</dim>
				</port>
			</output>
		</layer>
		<layer id="376" name="__module.model.layers.1.self_attn/aten::neg/Multiply_1" type="Multiply" version="opset1">
			<data auto_broadcast="numpy" />
			<input>
				<port id="0" precision="FP32">
					<dim>-1</dim>
					<dim>1</dim>
					<dim>-1</dim>
					<dim>2</dim>
				</port>
				<port id="1" precision="FP32">
					<dim>1</dim>
					<dim>1</dim>
					<dim>1</dim>
					<dim>1</dim>
				</port>
			</input>
			<output>
				<port id="2" precision="FP32" names="334">
					<dim>-1</dim>
					<dim>1</dim>
					<dim>-1</dim>
					<dim>2</dim>
				</port>
			</output>
		</layer>
		<layer id="377" name="__module.model.layers.1.self_attn/aten::slice/Reshape_12" type="Const" version="opset1">
			<data element_type="i64" shape="1" offset="662" size="8" />
			<output>
				<port id="0" precision="I64">
					<dim>1</dim>
				</port>
			</output>
		</layer>
		<layer id="378" name="__module.model.layers.1.self_attn/aten::slice/Reshape_14" type="Const" version="opset1">
			<data element_type="i64" shape="1" offset="670" size="8" />
			<output>
				<port id="0" precision="I64">
					<dim>1</dim>
				</port>
			</output>
		</layer>
		<layer id="379" name="__module.model.layers.1.self_attn/aten::slice/Reshape_15" type="Const" version="opset1">
			<data element_type="i64" shape="1" offset="694" size="8" />
			<output>
				<port id="0" precision="I64">
					<dim>1</dim>
				</port>
			</output>
		</layer>
		<layer id="380" name="__module.model.layers.1.self_attn/aten::slice/Slice_3" type="Slice" version="opset8">
			<input>
				<port id="0" precision="FP32">
					<dim>-1</dim>
					<dim>1</dim>
					<dim>-1</dim>
					<dim>4</dim>
				</port>
				<port id="1" precision="I64">
					<dim>1</dim>
				</port>
				<port id="2" precision="I64">
					<dim>1</dim>
				</port>
				<port id="3" precision="I64">
					<dim>1</dim>
				</port>
				<port id="4" precision="I64">
					<dim>1</dim>
				</port>
			</input>
			<output>
				<port id="5" precision="FP32" names="328">
					<dim>-1</dim>
					<dim>1</dim>
					<dim>-1</dim>
					<dim>2</dim>
				</port>
			</output>
		</layer>
		<layer id="381" name="__module.model.layers.1.self_attn/aten::cat/Concat_1" type="Concat" version="opset1">
			<data axis="-1" />
			<input>
				<port id="0" precision="FP32">
					<dim>-1</dim>
					<dim>1</dim>
					<dim>-1</dim>
					<dim>2</dim>
				</port>
				<port id="1" precision="FP32">
					<dim>-1</dim>
					<dim>1</dim>
					<dim>-1</dim>
					<dim>2</dim>
				</port>
			</input>
			<output>
				<port id="2" precision="FP32" names="336">
					<dim>-1</dim>
					<dim>1</dim>
					<dim>-1</dim>
					<dim>4</dim>
				</port>
			</output>
		</layer>
		<layer id="382" name="__module.model.layers.1.self_attn/aten::mul/Multiply_3" type="Multiply" version="opset1">
			<data auto_broadcast="numpy" />
			<input>
				<port id="0" precision="FP32">
					<dim>-1</dim>
					<dim>1</dim>
					<dim>-1</dim>
					<dim>4</dim>
				</port>
				<port id="1" precision="FP32">
					<dim>1</dim>
					<dim>1</dim>
					<dim>-1</dim>
					<dim>4</dim>
				</port>
			</input>
			<output>
				<port id="2" precision="FP32" names="337">
					<dim>-1</dim>
					<dim>1</dim>
					<dim>-1</dim>
					<dim>4</dim>
				</port>
			</output>
		</layer>
		<layer id="383" name="__module.model.layers.1.self_attn/aten::add/Add_1" type="Add" version="opset1">
			<data auto_broadcast="numpy" />
			<input>
				<port id="0" precision="FP32">
					<dim>-1</dim>
					<dim>1</dim>
					<dim>-1</dim>
					<dim>4</dim>
				</port>
				<port id="1" precision="FP32">
					<dim>-1</dim>
					<dim>1</dim>
					<dim>-1</dim>
					<dim>4</dim>
				</port>
			</input>
			<output>
				<port id="2" precision="FP32" names="338,344,345,hidden_states.39">
					<dim>-1</dim>
					<dim>1</dim>
					<dim>-1</dim>
					<dim>4</dim>
				</port>
			</output>
		</layer>
		<layer id="384" name="__module.model.layers.1.self_attn/aten::unsqueeze/Unsqueeze_2" type="Unsqueeze" version="opset1">
			<input>
				<port id="0" precision="FP32">
					<dim>-1</dim>
					<dim>1</dim>
					<dim>-1</dim>
					<dim>4</dim>
				</port>
				<port id="1" precision="I64" />
			</input>
			<output>
				<port id="2" precision="FP32" names="346,347,348">
					<dim>-1</dim>
					<dim>1</dim>
					<dim>1</dim>
					<dim>-1</dim>
					<dim>4</dim>
				</port>
			</output>
		</layer>
		<layer id="385" name="__module.model.layers.1.self_attn/aten::size/ShapeOf_6" type="ShapeOf" version="opset3">
			<data output_type="i64" />
			<input>
				<port id="0" precision="FP32">
					<dim>-1</dim>
					<dim>1</dim>
					<dim>-1</dim>
					<dim>4</dim>
				</port>
			</input>
			<output>
				<port id="1" precision="I64">
					<dim>4</dim>
				</port>
			</output>
		</layer>
		<layer id="386" name="Constant_162168" type="Const" version="opset1">
			<data element_type="i64" shape="1" offset="670" size="8" />
			<output>
				<port id="0" precision="I64">
					<dim>1</dim>
				</port>
			</output>
		</layer>
		<layer id="387" name="__module.model.layers.1.self_attn/aten::size/Constant_7" type="Const" version="opset1">
			<data element_type="i32" shape="" offset="352" size="4" />
			<output>
				<port id="0" precision="I32" />
			</output>
		</layer>
		<layer id="388" name="__module.model.layers.1.self_attn/aten::size/Gather_7" type="Gather" version="opset8">
			<data batch_dims="0" />
			<input>
				<port id="0" precision="I64">
					<dim>4</dim>
				</port>
				<port id="1" precision="I64">
					<dim>1</dim>
				</port>
				<port id="2" precision="I32" />
			</input>
			<output>
				<port id="3" precision="I64" names="340">
					<dim>1</dim>
				</port>
			</output>
		</layer>
		<layer id="389" name="Constant_159951" type="Const" version="opset1">
			<data element_type="i64" shape="1" offset="702" size="8" />
			<output>
				<port id="0" precision="I64">
					<dim>1</dim>
				</port>
			</output>
		</layer>
		<layer id="390" name="Constant_160554" type="Const" version="opset1">
			<data element_type="i64" shape="2" offset="898" size="16" />
			<output>
				<port id="0" precision="I64">
					<dim>2</dim>
				</port>
			</output>
		</layer>
		<layer id="391" name="Constant_160555" type="Const" version="opset1">
			<data element_type="i64" shape="" offset="662" size="8" />
			<output>
				<port id="0" precision="I64" />
			</output>
		</layer>
		<layer id="392" name="Gather_160556" type="Gather" version="opset8">
			<data batch_dims="0" />
			<input>
				<port id="0" precision="I64">
					<dim>4</dim>
				</port>
				<port id="1" precision="I64">
					<dim>2</dim>
				</port>
				<port id="2" precision="I64" />
			</input>
			<output>
				<port id="3" precision="I64">
					<dim>2</dim>
				</port>
			</output>
		</layer>
		<layer id="393" name="__module.model.layers.1.self_attn/prim::ListConstruct/Concat_2" type="Concat" version="opset1">
			<data axis="0" />
			<input>
				<port id="0" precision="I64">
					<dim>1</dim>
				</port>
				<port id="1" precision="I64">
					<dim>1</dim>
				</port>
				<port id="2" precision="I64">
					<dim>1</dim>
				</port>
				<port id="3" precision="I64">
					<dim>2</dim>
				</port>
			</input>
			<output>
…
		<layer id="522" name="Constant_149743" type="Const" version="opset1">
			<data element_type="i64" shape="1" offset="364" size="8" />
			<output>
				<port id="0" precision="I64" names="419">
					<dim>1</dim>
				</port>
			</output>
		</layer>
		<layer id="523" name="__module.model.norm/aten::mean/ReduceMean" type="ReduceMean" version="opset1">
			<data keep_dims="true" />
			<input>
				<port id="0" precision="FP32">
					<dim>-1</dim>
					<dim>-1</dim>
					<dim>8</dim>
				</port>
				<port id="1" precision="I64">
					<dim>1</dim>
				</port>
			</input>
			<output>
				<port id="2" precision="FP32" names="420,variance">
					<dim>-1</dim>
					<dim>-1</dim>
					<dim>1</dim>
				</port>
			</output>
		</layer>
		<layer id="524" name="Constant_161282" type="Const" version="opset1">
			<data element_type="f32" shape="1, 1, 1" offset="372" size="4" />
			<output>
				<port id="0" precision="FP32">
					<dim>1</dim>
					<dim>1</dim>
					<dim>1</dim>
				</port>
			</output>
		</layer>
		<layer id="525" name="__module.model.norm/aten::add/Add" type="Add" version="opset1">
			<data auto_broadcast="numpy" />
			<input>
				<port id="0" precision="FP32">
					<dim>-1</dim>
					<dim>-1</dim>
					<dim>1</dim>
				</port>
				<port id="1" precision="FP32">
					<dim>1</dim>
					<dim>1</dim>
					<dim>1</dim>
				</port>
			</input>
			<output>
				<port id="2" precision="FP32" names="421">
					<dim>-1</dim>
					<dim>-1</dim>
					<dim>1</dim>
				</port>
			</output>
		</layer>
		<layer id="526" name="__module.model.norm/aten::rsqrt/Sqrt" type="Sqrt" version="opset1">
			<input>
				<port id="0" precision="FP32">
					<dim>-1</dim>
					<dim>-1</dim>
					<dim>1</dim>
				</port>
			</input>
			<output>
				<port id="1" precision="FP32">
					<dim>-1</dim>
					<dim>-1</dim>
					<dim>1</dim>
				</port>
			</output>
		</layer>
		<layer id="527" name="__module.model.norm/aten::rsqrt/Divide" type="Divide" version="opset1">
			<data auto_broadcast="numpy" m_pythondiv="true" />
			<input>
				<port id="0" precision="FP32">
					<dim>1</dim>
					<dim>1</dim>
					<dim>1</dim>
				</port>
				<port id="1" precision="FP32">
					<dim>-1</dim>
					<dim>-1</dim>
					<dim>1</dim>
				</port>
			</input>
			<output>
				<port id="2" precision="FP32" names="422">
					<dim>-1</dim>
					<dim>-1</dim>
					<dim>1</dim>
				</port>
			</output>
		</layer>
		<layer id="528" name="__module.model.norm/aten::mul/Multiply" type="Multiply" version="opset1">
			<data auto_broadcast="numpy" />
			<input>
				<port id="0" precision="FP32">
					<dim>-1</dim>
					<dim>-1</dim>
					<dim>8</dim>
				</port>
				<port id="1" precision="FP32">
					<dim>-1</dim>
					<dim>-1</dim>
					<dim>1</dim>
				</port>
			</input>
			<output>
				<port id="2" precision="FP32" names="423,424,425,hidden_states,hidden_states.63">
					<dim>-1</dim>
					<dim>-1</dim>
					<dim>8</dim>
				</port>
			</output>
		</layer>
		<layer id="529" name="self.lm_head.weight" type="Const" version="opset1">
			<data element_type="u8" shape="32, 8" offset="2342" size="256" />
			<output>
				<port id="0" precision="U8">
					<dim>32</dim>
					<dim>8</dim>
				</port>
			</output>
		</layer>
		<layer id="530" name="Convert_162948" type="Convert" version="opset1">
			<data destination_type="f16" />
			<input>
				<port id="0" precision="U8">
					<dim>32</dim>
					<dim>8</dim>
				</port>
			</input>
			<output>
				<port id="1" precision="FP16">
					<dim>32</dim>
					<dim>8</dim>
				</port>
			</output>
		</layer>
		<layer id="531" name="self.lm_head.weight/zero_point" type="Const" version="opset1">
			<data element_type="u8" shape="32, 1" offset="2598" size="32" />
			<output>
				<port id="0" precision="U8">
					<dim>32</dim>
					<dim>1</dim>
				</port>
			</output>
		</layer>
		<layer id="532" name="Convert_162951" type="Convert" version="opset1">
			<data destination_type="f16" />
			<input>
				<port id="0" precision="U8">
					<dim>32</dim>
					<dim>1</dim>
				</port>
			</input>
			<output>
				<port id="1" precision="FP16">
					<dim>32</dim>
					<dim>1</dim>
				</port>
			</output>
		</layer>
		<layer id="533" name="self.lm_head.weight/zero_point/subtract" type="Subtract" version="opset1">
			<data auto_broadcast="numpy" />
			<input>
				<port id="0" precision="FP16">
					<dim>32</dim>
					<dim>8</dim>
				</port>
				<port id="1" precision="FP16">
					<dim>32</dim>
					<dim>1</dim>
				</port>
			</input>
			<output>
				<port id="2" precision="FP16">
					<dim>32</dim>
					<dim>8</dim>
				</port>
			</output>
		</layer>
		<layer id="534" name="self.lm_head.weight/scale" type="Const" version="opset1">
			<data element_type="f16" shape="32, 1" offset="2630" size="64" />
			<output>
				<port id="0" precision="FP16">
					<dim>32</dim>
					<dim>1</dim>
				</port>
			</output>
		</layer>
		<layer id="535" name="self.lm_head.weight/fq_weights_1" type="Multiply" version="opset1">
			<data auto_broadcast="numpy" />
			<input>
				<port id="0" precision="FP16">
					<dim>32</dim>
					<dim>8</dim>
				</port>
				<port id="1" precision="FP16">
					<dim>32</dim>
					<dim>1</dim>
				</port>
			</input>
			<output>
				<port id="2" precision="FP16">
					<dim>32</dim>
					<dim>8</dim>
				</port>
			</output>
		</layer>
		<layer id="536" name="self.lm_head.weight/fq_weights_1/convert" type="Convert" version="opset1">
			<data destination_type="f32" />
			<input>
				<port id="0" precision="FP16">
					<dim>32</dim>
					<dim>8</dim>
				</port>
			</input>
			<output>
				<port id="1" precision="FP32">
					<dim>32</dim>
					<dim>8</dim>
				</port>
			</output>
		</layer>
		<layer id="537" name="aten::to/Convert" type="MatMul" version="opset1">
			<data transpose_a="false" transpose_b="true" />
			<input>
				<port id="0" precision="FP32">
					<dim>-1</dim>
					<dim>-1</dim>
					<dim>8</dim>
				</port>
				<port id="1" precision="FP32">
					<dim>32</dim>
					<dim>8</dim>
				</port>
			</input>
			<output>
				<port id="2" precision="FP32" names="428,logits">
					<dim>-1</dim>
					<dim>-1</dim>
					<dim>32</dim>
				</port>
			</output>
		</layer>
		<layer id="538" name="Result_152949" type="Result" version="opset1">
			<input>
				<port id="0" precision="FP32">
					<dim>-1</dim>
					<dim>-1</dim>
					<dim>32</dim>
				</port>
			</input>
		</layer>
	</layers>
	<edges>
		<edge from-layer="0" from-port="0" to-layer="9" to-port="0" />
		<edge from-layer="1" from-port="0" to-layer="2" to-port="0" />
		<edge from-layer="2" from-port="1" to-layer="5" to-port="0" />
		<edge from-layer="3" from-port="0" to-layer="4" to-port="0" />
		<edge from-layer="4" from-port="1" to-layer="5" to-port="1" />
		<edge from-layer="5" from-port="2" to-layer="7" to-port="0" />
		<edge from-layer="6" from-port="0" to-layer="7" to-port="1" />
		<edge from-layer="7" from-port="2" to-layer="8" to-port="0" />
		<edge from-layer="8" from-port="1" to-layer="11" to-port="0" />
		<edge from-layer="9" from-port="1" to-layer="11" to-port="1" />
		<edge from-layer="10" from-port="0" to-layer="11" to-port="2" />
		<edge from-layer="11" from-port="3" to-layer="14" to-port="0" />
		<edge from-layer="11" from-port="3" to-layer="240" to-port="0" />
		<edge from-layer="11" from-port="3" to-layer="21" to-port="0" />
		<edge from-layer="12" from-port="0" to-layer="20" to-port="0" />
		<edge from-layer="13" from-port="0" to-layer="14" to-port="1" />
		<edge from-layer="14" from-port="2" to-layer="16" to-port="0" />
		<edge from-layer="15" from-port="0" to-layer="16" to-port="1" />
		<edge from-layer="16" from-port="2" to-layer="18" to-port="0" />
		<edge from-layer="17" from-port="0" to-layer="18" to-port="1" />
		<edge from-layer="18" from-port="2" to-layer="19" to-port="0" />
		<edge from-layer="19" from-port="1" to-layer="20" to-port="1" />
		<edge from-layer="20" from-port="2" to-layer="21" to-port="1" />
		<edge from-layer="21" from-port="2" to-layer="202" to-port="0" />
		<edge from-layer="21" from-port="2" to-layer="48" to-port="0" />
		<edge from-layer="21" from-port="2" to-layer="98" to-port="0" />
		<edge from-layer="21" from-port="2" to-layer="32" to-port="0" />
		<edge from-layer="22" from-port="0" to-layer="23" to-port="0" />
		<edge from-layer="23" from-port="1" to-layer="26" to-port="0" />
		<edge from-layer="24" from-port="0" to-layer="25" to-port="0" />
		<edge from-layer="25" from-port="1" to-layer="26" to-port="1" />
		<edge from-layer="26" from-port="2" to-layer="28" to-port="0" />
		<edge from-layer="27" from-port="0" to-layer="28" to-port="1" />
		<edge from-layer="28" from-port="2" to-layer="30" to-port="0" />
		<edge from-layer="29" from-port="0" to-layer="30" to-port="1" />
		<edge from-layer="30" from-port="2" to-layer="31" to-port="0" />
		<edge from-layer="31" from-port="1" to-layer="32" to-port="1" />
		<edge from-layer="32" from-port="2" to-layer="34" to-port="0" />
		<edge from-layer="33" from-port="0" to-layer="34" to-port="1" />
		<edge from-layer="34" from-port="2" to-layer="36" to-port="0" />
		<edge from-layer="35" from-port="0" to-layer="36" to-port="1" />
		<edge from-layer="36" from-port="2" to-layer="63" to-port="0" />
		<edge from-layer="36" from-port="2" to-layer="64" to-port="0" />
		<edge from-layer="36" from-port="2" to-layer="76" to-port="0" />
		<edge from-layer="36" from-port="2" to-layer="82" to-port="0" />
		<edge from-layer="37" from-port="0" to-layer="38" to-port="0" />
		<edge from-layer="38" from-port="1" to-layer="41" to-port="0" />
		<edge from-layer="39" from-port="0" to-layer="40" to-port="0" />
		<edge from-layer="40" from-port="1" to-layer="41" to-port="1" />
		<edge from-layer="41" from-port="2" to-layer="43" to-port="0" />
		<edge from-layer="42" from-port="0" to-layer="43" to-port="1" />
		<edge from-layer="43" from-port="2" to-layer="45" to-port="0" />
		<edge from-layer="44" from-port="0" to-layer="45" to-port="1" />
		<edge from-layer="45" from-port="2" to-layer="46" to-port="0" />
		<edge from-layer="46" from-port="1" to-layer="57" to-port="0" />
		<edge from-layer="47" from-port="0" to-layer="53" to-port="0" />
		<edge from-layer="47" from-port="0" to-layer="176" to-port="1" />
		<edge from-layer="47" from-port="0" to-layer="54" to-port="1" />
		<edge from-layer="48" from-port="1" to-layer="225" to-port="0" />
		<edge from-layer="48" from-port="1" to-layer="51" to-port="0" />
		<edge from-layer="48" from-port="1" to-layer="128" to-port="0" />
		<edge from-layer="49" from-port="0" to-layer="51" to-port="1" />
		<edge from-layer="50" from-port="0" to-layer="51" to-port="2" />
		<edge from-layer="51" from-port="3" to-layer="146" to-port="0" />
		<edge from-layer="51" from-port="3" to-layer="159" to-port="0" />
		<edge from-layer="51" from-port="3" to-layer="152" to-port="0" />
		<edge from-layer="51" from-port="3" to-layer="53" to-port="1" />
		<edge from-layer="52" from-port="0" to-layer="53" to-port="2" />
		<edge from-layer="53" from-port="3" to-layer="172" to-port="0" />
		<edge from-layer="53" from-port="3" to-layer="54" to-port="0" />
		<edge from-layer="54" from-port="2" to-layer="56" to-port="0" />
		<edge from-layer="55" from-port="0" to-layer="85" to-port="1" />
		<edge from-layer="55" from-port="0" to-layer="62" to-port="1" />
		<edge from-layer="55" from-port="0" to-layer="177" to-port="1" />
		<edge from-layer="55" from-port="0" to-layer="56" to-port="1" />
		<edge from-layer="56" from-port="2" to-layer="57" to-port="1" />
		<edge from-layer="57" from-port="2" to-layer="59" to-port="0" />
		<edge from-layer="58" from-port="0" to-layer="59" to-port="1" />
		<edge from-layer="59" from-port="2" to-layer="60" to-port="0" />
		<edge from-layer="59" from-port="2" to-layer="60" to-port="1" />
		<edge from-layer="60" from-port="2" to-layer="84" to-port="0" />
		<edge from-layer="60" from-port="2" to-layer="61" to-port="0" />
		<edge from-layer="61" from-port="1" to-layer="62" to-port="0" />
		<edge from-layer="62" from-port="2" to-layer="363" to-port="1" />
		<edge from-layer="62" from-port="2" to-layer="327" to-port="1" />
		<edge from-layer="62" from-port="2" to-layer="103" to-port="1" />
		<edge from-layer="62" from-port="2" to-layer="63" to-port="1" />
		<edge from-layer="63" from-port="2" to-layer="87" to-port="0" />
		<edge from-layer="64" from-port="1" to-layer="67" to-port="0" />
		<edge from-layer="65" from-port="0" to-layer="330" to-port="1" />
		<edge from-layer="65" from-port="0" to-layer="366" to-port="1" />
		<edge from-layer="65" from-port="0" to-layer="106" to-port="1" />
		<edge from-layer="65" from-port="0" to-layer="67" to-port="1" />
		<edge from-layer="66" from-port="0" to-layer="67" to-port="2" />
		<edge from-layer="67" from-port="3" to-layer="69" to-port="0" />
		<edge from-layer="68" from-port="0" to-layer="107" to-port="1" />
		<edge from-layer="68" from-port="0" to-layer="367" to-port="1" />
		<edge from-layer="68" from-port="0" to-layer="69" to-port="1" />
		<edge from-layer="68" from-port="0" to-layer="331" to-port="1" />
		<edge from-layer="69" from-port="2" to-layer="70" to-port="0" />
		<edge from-layer="70" from-port="1" to-layer="72" to-port="0" />
		<edge from-layer="71" from-port="0" to-layer="72" to-port="1" />
		<edge from-layer="72" from-port="2" to-layer="76" to-port="1" />
		<edge from-layer="72" from-port="2" to-layer="82" to-port="2" />
		<edge from-layer="73" from-port="0" to-layer="76" to-port="2" />
		<edge from-layer="74" from-port="0" to-layer="76" to-port="3" />
		<edge from-layer="75" from-port="0" to-layer="76" to-port="4" />
		<edge from-layer="76" from-port="5" to-layer="78" to-port="0" />
		<edge from-layer="77" from-port="0" to-layer="78" to-port="1" />
		<edge from-layer="78" from-port="2" to-layer="83" to-port="0" />
		<edge from-layer="79" from-port="0" to-layer="82" to-port="1" />
		<edge from-layer="80" from-port="0" to-layer="82" to-port="3" />
		<edge from-layer="81" from-port="0" to-layer="82" to-port="4" />
		<edge from-layer="82" from-port="5" to-layer="83" to-port="1" />
		<edge from-layer="83" from-port="2" to-layer="86" to-port="0" />
		<edge from-layer="84" from-port="1" to-layer="85" to-port="0" />
		<edge from-layer="85" from-port="2" to-layer="382" to-port="1" />
		<edge from-layer="85" from-port="2" to-layer="122" to-port="1" />
		<edge from-layer="85" from-port="2" to-layer="346" to-port="1" />
		<edge from-layer="85" from-port="2" to-layer="86" to-port="1" />
		<edge from-layer="86" from-port="2" to-layer="87" to-port="1" />
		<edge from-layer="87" from-port="2" to-layer="141" to-port="0" />
		<edge from-layer="88" from-port="0" to-layer="89" to-port="0" />
		<edge from-layer="89" from-port="1" to-layer="92" to-port="0" />
		<edge from-layer="90" from-port="0" to-layer="91" to-port="0" />
		<edge from-layer="91" from-port="1" to-layer="92" to-port="1" />
		<edge from-layer="92" from-port="2" to-layer="94" to-port="0" />
		<edge from-layer="93" from-port="0" to-layer="94" to-port="1" />
		<edge from-layer="94" from-port="2" to-layer="96" to-port="0" />
		<edge from-layer="95" from-port="0" to-layer="96" to-port="1" />
		<edge from-layer="96" from-port="2" to-layer="97" to-port="0" />
		<edge from-layer="97" from-port="1" to-layer="98" to-port="1" />
		<edge from-layer="98" from-port="2" to-layer="100" to-port="0" />
		<edge from-layer="99" from-port="0" to-layer="100" to-port="1" />
		<edge from-layer="100" from-port="2" to-layer="102" to-port="0" />
		<edge from-layer="101" from-port="0" to-layer="102" to-port="1" />
		<edge from-layer="102" from-port="2" to-layer="120" to-port="0" />
		<edge from-layer="102" from-port="2" to-layer="104" to-port="0" />
		<edge from-layer="102" from-port="2" to-layer="103" to-port="0" />
		<edge from-layer="102" from-port="2" to-layer="114" to-port="0" />
		<edge from-layer="103" from-port="2" to-layer="123" to-port="0" />
		<edge from-layer="104" from-port="1" to-layer="106" to-port="0" />
		<edge from-layer="105" from-port="0" to-layer="106" to-port="2" />
		<edge from-layer="106" from-port="3" to-layer="107" to-port="0" />
		<edge from-layer="107" from-port="2" to-layer="108" to-port="0" />
		<edge from-layer="108" from-port="1" to-layer="110" to-port="0" />
		<edge from-layer="109" from-port="0" to-layer="110" to-port="1" />
		<edge from-layer="110" from-port="2" to-layer="120" to-port="2" />
		<edge from-layer="110" from-port="2" to-layer="114" to-port="1" />
		<edge from-layer="111" from-port="0" to-layer="114" to-port="2" />
		<edge from-layer="112" from-port="0" to-layer="114" to-port="3" />
		<edge from-layer="113" from-port="0" to-layer="114" to-port="4" />
		<edge from-layer="114" from-port="5" to-layer="116" to-port="0" />
		<edge from-layer="115" from-port="0" to-layer="116" to-port="1" />
		<edge from-layer="116" from-port="2" to-layer="121" to-port="0" />
		<edge from-layer="117" from-port="0" to-layer="120" to-port="1" />
		<edge from-layer="118" from-port="0" to-layer="120" to-port="3" />
		<edge from-layer="119" from-port="0" to-layer="120" to-port="4" />
		<edge from-layer="120" from-port="5" to-layer="121" to-port="1" />
		<edge from-layer="121" from-port="2" to-layer="122" to-port="0" />
		<edge from-layer="122" from-port="2" to-layer="123" to-port="1" />
		<edge from-layer="123" from-port="2" to-layer="129" to-port="0" />
		<edge from-layer="123" from-port="2" to-layer="125" to-port="0" />
		<edge from-layer="124" from-port="0" to-layer="384" to-port="1" />
		<edge from-layer="124" from-port="0" to-layer="424" to-port="1" />
		<edge from-layer="124" from-port="0" to-layer="125" to-port="1" />
		<edge from-layer="124" from-port="0" to-layer="207" to-port="1" />
		<edge from-layer="125" from-port="2" to-layer="138" to-port="0" />
		<edge from-layer="126" from-port="0" to-layer="128" to-port="1" />
		<edge from-layer="127" from-port="0" to-layer="128" to-port="2" />
		<edge from-layer="128" from-port="3" to-layer="181" to-port="0" />
		<edge from-layer="128" from-port="3" to-layer="433" to-port="0" />
		<edge from-layer="128" from-port="3" to-layer="216" to-port="0" />
		<edge from-layer="128" from-port="3" to-layer="393" to-port="0" />
		<edge from-layer="128" from-port="3" to-layer="137" to-port="0" />
		<edge from-layer="129" from-port="1" to-layer="136" to-port="0" />
		<edge from-layer="129" from-port="1" to-layer="132" to-port="0" />
		<edge from-layer="129" from-port="1" to-layer="186" to-port="0" />
		<edge from-layer="130" from-port="0" to-layer="132" to-port="1" />
		<edge from-layer="131" from-port="0" to-layer="132" to-port="2" />
		<edge from-layer="132" from-port="3" to-layer="137" to-port="1" />
		<edge from-layer="133" from-port="0" to-layer="137" to-port="2" />
		<edge from-layer="134" from-port="0" to-layer="136" to-port="1" />
		<edge from-layer="135" from-port="0" to-layer="136" to-port="2" />
		<edge from-layer="136" from-port="3" to-layer="137" to-port="3" />
		<edge from-layer="137" from-port="4" to-layer="138" to-port="1" />
		<edge from-layer="138" from-port="2" to-layer="140" to-port="0" />
		<edge from-layer="139" from-port="0" to-layer="140" to-port="1" />
		<edge from-layer="140" from-port="2" to-layer="141" to-port="1" />
		<edge from-layer="141" from-port="2" to-layer="143" to-port="0" />
		<edge from-layer="142" from-port="0" to-layer="143" to-port="1" />
		<edge from-layer="143" from-port="2" to-layer="190" to-port="0" />
		<edge from-layer="144" from-port="0" to-layer="149" to-port="0" />
		<edge from-layer="144" from-port="0" to-layer="150" to-port="1" />
		<edge from-layer="145" from-port="0" to-layer="146" to-port="1" />
		<edge from-layer="146" from-port="2" to-layer="161" to-port="0" />
		<edge from-layer="146" from-port="2" to-layer="168" to-port="1" />
		<edge from-layer="146" from-port="2" to-layer="147" to-port="0" />
		<edge from-layer="147" from-port="1" to-layer="149" to-port="1" />
		<edge from-layer="148" from-port="0" to-layer="149" to-port="2" />
		<edge from-layer="148" from-port="0" to-layer="154" to-port="2" />
		<edge from-layer="148" from-port="0" to-layer="155" to-port="1" />
		<edge from-layer="149" from-port="3" to-layer="150" to-port="0" />
		<edge from-layer="150" from-port="2" to-layer="156" to-port="0" />
		<edge from-layer="151" from-port="0" to-layer="153" to-port="1" />
		<edge from-layer="151" from-port="0" to-layer="154" to-port="0" />
		<edge from-layer="152" from-port="1" to-layer="153" to-port="0" />
		<edge from-layer="153" from-port="2" to-layer="154" to-port="1" />
		<edge from-layer="154" from-port="3" to-layer="155" to-port="0" />
		<edge from-layer="155" from-port="2" to-layer="156" to-port="1" />
		<edge from-layer="156" from-port="2" to-layer="165" to-port="0" />
		<edge from-layer="157" from-port="0" to-layer="163" to-port="0" />
		<edge from-layer="158" from-port="0" to-layer="159" to-port="1" />
		<edge from-layer="159" from-port="2" to-layer="162" to-port="0" />
		<edge from-layer="160" from-port="0" to-layer="161" to-port="1" />
		<edge from-layer="161" from-port="2" to-layer="162" to-port="1" />
		<edge from-layer="162" from-port="2" to-layer="163" to-port="1" />
		<edge from-layer="163" from-port="2" to-layer="165" to-port="1" />
		<edge from-layer="164" from-port="0" to-layer="165" to-port="2" />
		<edge from-layer="165" from-port="3" to-layer="175" to-port="0" />
		<edge from-layer="166" from-port="0" to-layer="168" to-port="0" />
		<edge from-layer="167" from-port="0" to-layer="168" to-port="2" />
		<edge from-layer="168" from-port="3" to-layer="169" to-port="0" />
		<edge from-layer="169" from-port="1" to-layer="170" to-port="0" />
		<edge from-layer="170" from-port="1" to-layer="173" to-port="0" />
		<edge from-layer="171" from-port="0" to-layer="172" to-port="1" />
		<edge from-layer="172" from-port="2" to-layer="173" to-port="1" />
		<edge from-layer="173" from-port="2" to-layer="174" to-port="0" />
		<edge from-layer="174" from-port="1" to-layer="175" to-port="1" />
		<edge from-layer="175" from-port="2" to-layer="176" to-port="0" />
		<edge from-layer="176" from-port="2" to-layer="177" to-port="0" />
		<edge from-layer="177" from-port="2" to-layer="182" to-port="0" />
		<edge from-layer="178" from-port="0" to-layer="181" to-port="1" />
		<edge from-layer="179" from-port="0" to-layer="181" to-port="2" />
		<edge from-layer="180" from-port="0" to-layer="181" to-port="3" />
		<edge from-layer="181" from-port="4" to-layer="182" to-port="1" />
		<edge from-layer="182" from-port="2" to-layer="406" to-port="0" />
		<edge from-layer="182" from-port="2" to-layer="189" to-port="0" />
		<edge from-layer="183" from-port="0" to-layer="189" to-port="1" />
		<edge from-layer="184" from-port="0" to-layer="186" to-port="1" />
		<edge from-layer="185" from-port="0" to-layer="186" to-port="2" />
		<edge from-layer="186" from-port="3" to-layer="189" to-port="2" />
		<edge from-layer="187" from-port="0" to-layer="189" to-port="3" />
		<edge from-layer="188" from-port="0" to-layer="189" to-port="4" />
		<edge from-layer="189" from-port="5" to-layer="190" to-port="1" />
		<edge from-layer="190" from-port="2" to-layer="191" to-port="0" />
		<edge from-layer="191" from-port="1" to-layer="220" to-port="0" />
		<edge from-layer="192" from-port="0" to-layer="193" to-port="0" />
		<edge from-layer="193" from-port="1" to-layer="196" to-port="0" />
		<edge from-layer="194" from-port="0" to-layer="195" to-port="0" />
		<edge from-layer="195" from-port="1" to-layer="196" to-port="1" />
		<edge from-layer="196" from-port="2" to-layer="198" to-port="0" />
		<edge from-layer="197" from-port="0" to-layer="198" to-port="1" />
		<edge from-layer="198" from-port="2" to-layer="200" to-port="0" />
		<edge from-layer="199" from-port="0" to-layer="200" to-port="1" />
		<edge from-layer="200" from-port="2" to-layer="201" to-port="0" />
		<edge from-layer="201" from-port="1" to-layer="202" to-port="1" />
		<edge from-layer="202" from-port="2" to-layer="204" to-port="0" />
		<edge from-layer="203" from-port="0" to-layer="204" to-port="1" />
		<edge from-layer="204" from-port="2" to-layer="206" to-port="0" />
		<edge from-layer="205" from-port="0" to-layer="206" to-port="1" />
		<edge from-layer="206" from-port="2" to-layer="208" to-port="0" />
		<edge from-layer="206" from-port="2" to-layer="207" to-port="0" />
		<edge from-layer="207" from-port="2" to-layer="217" to-port="0" />
		<edge from-layer="208" from-port="1" to-layer="215" to-port="0" />
		<edge from-layer="208" from-port="1" to-layer="211" to-port="0" />
		<edge from-layer="209" from-port="0" to-layer="211" to-port="1" />
		<edge from-layer="210" from-port="0" to-layer="211" to-port="2" />
		<edge from-layer="211" from-port="3" to-layer="216" to-port="1" />
		<edge from-layer="212" from-port="0" to-layer="216" to-port="2" />
		<edge from-layer="213" from-port="0" to-layer="215" to-port="1" />
		<edge from-layer="214" from-port="0" to-layer="215" to-port="2" />
		<edge from-layer="215" from-port="3" to-layer="216" to-port="3" />
		<edge from-layer="216" from-port="4" to-layer="217" to-port="1" />
		<edge from-layer="217" from-port="2" to-layer="219" to-port="0" />
		<edge from-layer="218" from-port="0" to-layer="219" to-port="1" />
		<edge from-layer="219" from-port="2" to-layer="220" to-port="1" />
		<edge from-layer="220" from-port="2" to-layer="222" to-port="0" />
		<edge from-layer="221" from-port="0" to-layer="222" to-port="1" />
		<edge from-layer="222" from-port="2" to-layer="228" to-port="0" />
		<edge from-layer="223" from-port="0" to-layer="225" to-port="1" />
		<edge from-layer="224" from-port="0" to-layer="225" to-port="2" />
		<edge from-layer="225" from-port="3" to-layer="227" to-port="0" />
		<edge from-layer="226" from-port="0" to-layer="444" to-port="1" />
		<edge from-layer="226" from-port="0" to-layer="227" to-port="1" />
		<edge from-layer="227" from-port="2" to-layer="228" to-port="1" />
		<edge from-layer="228" from-port="2" to-layer="239" to-port="0" />
		<edge from-layer="229" from-port="0" to-layer="230" to-port="0" />
		<edge from-layer="230" from-port="1" to-layer="233" to-port="0" />
		<edge from-layer="231" from-port="0" to-layer="232" to-port="0" />
		<edge from-layer="232" from-port="1" to-layer="233" to-port="1" />
		<edge from-layer="233" from-port="2" to-layer="235" to-port="0" />
		<edge from-layer="234" from-port="0" to-layer="235" to-port="1" />
		<edge from-layer="235" from-port="2" to-layer="237" to-port="0" />
		<edge from-layer="236" from-port="0" to-layer="237" to-port="1" />
		<edge from-layer="237" from-port="2" to-layer="238" to-port="0" />
		<edge from-layer="238" from-port="1" to-layer="239" to-port="1" />
		<edge from-layer="239" from-port="2" to-layer="240" to-port="1" />
		<edge from-layer="240" from-port="2" to-layer="250" to-port="0" />
		<edge from-layer="240" from-port="2" to-layer="301" to-port="0" />
		<edge from-layer="240" from-port="2" to-layer="243" to-port="0" />
		<edge from-layer="241" from-port="0" to-layer="249" to-port="0" />
		<edge from-layer="242" from-port="0" to-layer="243" to-port="1" />
		<edge from-layer="243" from-port="2" to-layer="245" to-port="0" />
		<edge from-layer="244" from-port="0" to-layer="245" to-port="1" />
		<edge from-layer="245" from-port="2" to-layer="247" to-port="0" />
		<edge from-layer="246" from-port="0" to-layer="247" to-port="1" />
		<edge from-layer="247" from-port="2" to-layer="248" to-port="0" />
		<edge from-layer="248" from-port="1" to-layer="249" to-port="1" />
		<edge from-layer="249" from-port="2" to-layer="250" to-port="1" />
		<edge from-layer="250" from-port="2" to-layer="272" to-port="2" />
		<edge from-layer="250" from-port="2" to-layer="268" to-port="0" />
		<edge from-layer="250" from-port="2" to-layer="255" to-port="2" />
		<edge from-layer="250" from-port="2" to-layer="251" to-port="0" />
		<edge from-layer="251" from-port="1" to-layer="253" to-port="0" />
		<edge from-layer="252" from-port="0" to-layer="253" to-port="1" />
		<edge from-layer="253" from-port="2" to-layer="255" to-port="0" />
		<edge from-layer="254" from-port="0" to-layer="255" to-port="1" />
		<edge from-layer="255" from-port="3" to-layer="266" to-port="0" />
		<edge from-layer="256" from-port="0" to-layer="257" to-port="0" />
		<edge from-layer="257" from-port="1" to-layer="260" to-port="0" />
		<edge from-layer="258" from-port="0" to-layer="259" to-port="0" />
		<edge from-layer="259" from-port="1" to-layer="260" to-port="1" />
		<edge from-layer="260" from-port="2" to-layer="262" to-port="0" />
		<edge from-layer="261" from-port="0" to-layer="262" to-port="1" />
		<edge from-layer="262" from-port="2" to-layer="264" to-port="0" />
		<edge from-layer="263" from-port="0" to-layer="264" to-port="1" />
		<edge from-layer="264" from-port="2" to-layer="265" to-port="0" />
		<edge from-layer="265" from-port="1" to-layer="266" to-port="1" />
		<edge from-layer="266" from-port="2" to-layer="267" to-port="0" />
		<edge from-layer="267" from-port="1" to-layer="284" to-port="0" />
		<edge from-layer="268" from-port="1" to-layer="270" to-port="0" />
		<edge from-layer="269" from-port="0" to-layer="270" to-port="1" />
		<edge from-layer="270" from-port="2" to-layer="272" to-port="0" />
		<edge from-layer="271" from-port="0" to-layer="272" to-port="1" />
		<edge from-layer="272" from-port="3" to-layer="283" to-port="0" />
		<edge from-layer="273" from-port="0" to-layer="274" to-port="0" />
		<edge from-layer="274" from-port="1" to-layer="277" to-port="0" />
		<edge from-layer="275" from-port="0" to-layer="276" to-port="0" />
		<edge from-layer="276" from-port="1" to-layer="277" to-port="1" />
		<edge from-layer="277" from-port="2" to-layer="279" to-port="0" />
		<edge from-layer="278" from-port="0" to-layer="279" to-port="1" />
		<edge from-layer="279" from-port="2" to-layer="281" to-port="0" />
		<edge from-layer="280" from-port="0" to-layer="281" to-port="1" />
		<edge from-layer="281" from-port="2" to-layer="282" to-port="0" />
		<edge from-layer="282" from-port="1" to-layer="283" to-port="1" />
		<edge from-layer="283" from-port="2" to-layer="284" to-port="1" />
		<edge from-layer="284" from-port="2" to-layer="289" to-port="2" />
		<edge from-layer="284" from-port="2" to-layer="285" to-port="0" />
		<edge from-layer="285" from-port="1" to-layer="287" to-port="0" />
		<edge from-layer="286" from-port="0" to-layer="287" to-port="1" />
		<edge from-layer="287" from-port="2" to-layer="289" to-port="0" />
		<edge from-layer="288" from-port="0" to-layer="289" to-port="1" />
		<edge from-layer="289" from-port="3" to-layer="300" to-port="0" />
		<edge from-layer="290" from-port="0" to-layer="291" to-port="0" />
		<edge from-layer="291" from-port="1" to-layer="294" to-port="0" />
		<edge from-layer="292" from-port="0" to-layer="293" to-port="0" />
		<edge from-layer="293" from-port="1" to-layer="294" to-port="1" />
		<edge from-layer="294" from-port="2" to-layer="296" to-port="0" />
		<edge from-layer="295" from-port="0" to-layer="296" to-port="1" />
		<edge from-layer="296" from-port="2" to-layer="298" to-port="0" />
		<edge from-layer="297" from-port="0" to-layer="298" to-port="1" />
		<edge from-layer="298" from-port="2" to-layer="299" to-port="0" />
		<edge from-layer="299" from-port="1" to-layer="300" to-port="1" />
		<edge from-layer="300" from-port="2" to-layer="301" to-port="1" />
		<edge from-layer="301" from-port="2" to-layer="311" to-port="0" />
		<edge from-layer="301" from-port="2" to-layer="304" to-port="0" />
		<edge from-layer="301" from-port="2" to-layer="457" to-port="0" />
		<edge from-layer="302" from-port="0" to-layer="310" to-port="0" />
		<edge from-layer="303" from-port="0" to-layer="304" to-port="1" />
		<edge from-layer="304" from-port="2" to-layer="306" to-port="0" />
		<edge from-layer="305" from-port="0" to-layer="306" to-port="1" />
		<edge from-layer="306" from-port="2" to-layer="308" to-port="0" />
		<edge from-layer="307" from-port="0" to-layer="308" to-port="1" />
		<edge from-layer="308" from-port="2" to-layer="309" to-port="0" />
		<edge from-layer="309" from-port="1" to-layer="310" to-port="1" />
		<edge from-layer="310" from-port="2" to-layer="311" to-port="1" />
		<edge from-layer="311" from-port="2" to-layer="440" to-port="0" />
		<edge from-layer="311" from-port="2" to-layer="358" to-port="0" />
		<edge from-layer="311" from-port="2" to-layer="419" to-port="0" />
		<edge from-layer="311" from-port="2" to-layer="322" to-port="0" />
		<edge from-layer="312" from-port="0" to-layer="313" to-port="0" />
		<edge from-layer="313" from-port="1" to-layer="316" to-port="0" />
		<edge from-layer="314" from-port="0" to-layer="315" to-port="0" />
		<edge from-layer="315" from-port="1" to-layer="316" to-port="1" />
		<edge from-layer="316" from-port="2" to-layer="318" to-port="0" />
		<edge from-layer="317" from-port="0" to-layer="318" to-port="1" />
		<edge from-layer="318" from-port="2" to-layer="320" to-port="0" />
		<edge from-layer="319" from-port="0" to-layer="320" to-port="1" />
		<edge from-layer="320" from-port="2" to-layer="321" to-port="0" />
		<edge from-layer="321" from-port="1" to-layer="322" to-port="1" />
		<edge from-layer="322" from-port="2" to-layer="324" to-port="0" />
		<edge from-layer="323" from-port="0" to-layer="324" to-port="1" />
		<edge from-layer="324" from-port="2" to-layer="326" to-port="0" />
		<edge from-layer="325" from-port="0" to-layer="326" to-port="1" />
		<edge from-layer="326" from-port="2" to-layer="328" to-port="0" />
		<edge from-layer="326" from-port="2" to-layer="338" to-port="0" />
		<edge from-layer="326" from-port="2" to-layer="344" to-port="0" />
		<edge from-layer="326" from-port="2" to-layer="327" to-port="0" />
		<edge from-layer="327" from-port="2" to-layer="347" to-port="0" />
		<edge from-layer="328" from-port="1" to-layer="330" to-port="0" />
		<edge from-layer="329" from-port="0" to-layer="330" to-port="2" />
		<edge from-layer="330" from-port="3" to-layer="331" to-port="0" />
		<edge from-layer="331" from-port="2" to-layer="332" to-port="0" />
		<edge from-layer="332" from-port="1" to-layer="334" to-port="0" />
		<edge from-layer="333" from-port="0" to-layer="334" to-port="1" />
		<edge from-layer="334" from-port="2" to-layer="344" to-port="2" />
		<edge from-layer="334" from-port="2" to-layer="338" to-port="1" />
		<edge from-layer="335" from-port="0" to-layer="338" to-port="2" />
		<edge from-layer="336" from-port="0" to-layer="338" to-port="3" />
		<edge from-layer="337" from-port="0" to-layer="338" to-port="4" />
		<edge from-layer="338" from-port="5" to-layer="340" to-port="0" />
		<edge from-layer="339" from-port="0" to-layer="340" to-port="1" />
		<edge from-layer="340" from-port="2" to-layer="345" to-port="0" />
		<edge from-layer="341" from-port="0" to-layer="344" to-port="1" />
		<edge from-layer="342" from-port="0" to-layer="344" to-port="3" />
		<edge from-layer="343" from-port="0" to-layer="344" to-port="4" />
		<edge from-layer="344" from-port="5" to-layer="345" to-port="1" />
		<edge from-layer="345" from-port="2" to-layer="346" to-port="0" />
		<edge from-layer="346" from-port="2" to-layer="347" to-port="1" />
		<edge from-layer="347" from-port="2" to-layer="397" to-port="0" />
		<edge from-layer="348" from-port="0" to-layer="349" to-port="0" />
		<edge from-layer="349" from-port="1" to-layer="352" to-port="0" />
		<edge from-layer="350" from-port="0" to-layer="351" to-port="0" />
		<edge from-layer="351" from-port="1" to-layer="352" to-port="1" />
		<edge from-layer="352" from-port="2" to-layer="354" to-port="0" />
		<edge from-layer="353" from-port="0" to-layer="354" to-port="1" />
		<edge from-layer="354" from-port="2" to-layer="356" to-port="0" />
		<edge from-layer="355" from-port="0" to-layer="356" to-port="1" />
		<edge from-layer="356" from-port="2" to-layer="357" to-port="0" />
		<edge from-layer="357" from-port="1" to-layer="358" to-port="1" />
		<edge from-layer="358" from-port="2" to-layer="360" to-port="0" />
		<edge from-layer="359" from-port="0" to-layer="360" to-port="1" />
		<edge from-layer="360" from-port="2" to-layer="362" to-port="0" />
		<edge from-layer="361" from-port="0" to-layer="362" to-port="1" />
		<edge from-layer="362" from-port="2" to-layer="374" to-port="0" />
		<edge from-layer="362" from-port="2" to-layer="380" to-port="0" />
		<edge from-layer="362" from-port="2" to-layer="364" to-port="0" />
		<edge from-layer="362" from-port="2" to-layer="363" to-port="0" />
		<edge from-layer="363" from-port="2" to-layer="383" to-port="0" />
		<edge from-layer="364" from-port="1" to-layer="366" to-port="0" />
		<edge from-layer="365" from-port="0" to-layer="366" to-port="2" />
		<edge from-layer="366" from-port="3" to-layer="367" to-port="0" />
		<edge from-layer="367" from-port="2" to-layer="368" to-port="0" />
		<edge from-layer="368" from-port="1" to-layer="370" to-port="0" />
		<edge from-layer="369" from-port="0" to-layer="370" to-port="1" />
		<edge from-layer="370" from-port="2" to-layer="374" to-port="1" />
		<edge from-layer="370" from-port="2" to-layer="380" to-port="2" />
		<edge from-layer="371" from-port="0" to-layer="374" to-port="2" />
		<edge from-layer="372" from-port="0" to-layer="374" to-port="3" />
		<edge from-layer="373" from-port="0" to-layer="374" to-port="4" />
		<edge from-layer="374" from-port="5" to-layer="376" to-port="0" />
		<edge from-layer="375" from-port="0" to-layer="376" to-port="1" />
		<edge from-layer="376" from-port="2" to-layer="381" to-port="0" />
		<edge from-layer="377" from-port="0" to-layer="380" to-port="1" />
		<edge from-layer="378" from-port="0" to-layer="380" to-port="3" />
		<edge from-layer="379" from-port="0" to-layer="380" to-port="4" />
		<edge from-layer="380" from-port="5" to-layer="381" to-port="1" />
		<edge from-layer="381" from-port="2" to-layer="382" to-port="0" />
		<edge from-layer="382" from-port="2" to-layer="383" to-port="1" />
		<edge from-layer="383" from-port="2" to-layer="385" to-port="0" />
		<edge from-layer="383" from-port="2" to-layer="384" to-port="0" />
		<edge from-layer="384" from-port="2" to-layer="394" to-port="0" />
		<edge from-layer="385" from-port="1" to-layer="388" to-port="0" />
		<edge from-layer="385" from-port="1" to-layer="403" to-port="0" />
		<edge from-layer="385" from-port="1" to-layer="392" to-port="0" />
		<edge from-layer="386" from-port="0" to-layer="388" to-port="1" />
		<edge from-layer="387" from-port="0" to-layer="388" to-port="2" />
		<edge from-layer="388" from-port="3" to-layer="393" to-port="1" />
		<edge from-layer="389" from-port="0" to-layer="393" to-port="2" />
		<edge from-layer="390" from-port="0" to-layer="392" to-port="1" />
		<edge from-layer="391" from-port="0" to-layer="392" to-port="2" />
		<edge from-layer="392" from-port="3" to-layer="393" to-port="3" />
		<edge from-layer="393" from-port="4" to-layer="394" to-port="1" />
		<edge from-layer="394" from-port="2" to-layer="396" to-port="0" />
		<edge from-layer="395" from-port="0" to-layer="396" to-port="1" />
		<edge from-layer="396" from-port="2" to-layer="397" to-port="1" />
		<edge from-layer="397" from-port="2" to-layer="399" to-port="0" />
		<edge from-layer="398" from-port="0" to-layer="399" to-port="1" />
		<edge from-layer="399" from-port="2" to-layer="407" to-port="0" />
		<edge from-layer="400" from-port="0" to-layer="406" to-port="1" />
		<edge from-layer="401" from-port="0" to-layer="403" to-port="1" />
		<edge from-layer="402" from-port="0" to-layer="403" to-port="2" />
		<edge from-layer="403" from-port="3" to-layer="406" to-port="2" />
		<edge from-layer="404" from-port="0" to-layer="406" to-port="3" />
		<edge from-layer="405" from-port="0" to-layer="406" to-port="4" />
		<edge from-layer="406" from-port="5" to-layer="407" to-port="1" />
		<edge from-layer="407" from-port="2" to-layer="408" to-port="0" />
		<edge from-layer="408" from-port="1" to-layer="437" to-port="0" />
		<edge from-layer="409" from-port="0" to-layer="410" to-port="0" />
		<edge from-layer="410" from-port="1" to-layer="413" to-port="0" />
		<edge from-layer="411" from-port="0" to-layer="412" to-port="0" />
		<edge from-layer="412" from-port="1" to-layer="413" to-port="1" />
		<edge from-layer="413" from-port="2" to-layer="415" to-port="0" />
		<edge from-layer="414" from-port="0" to-layer="415" to-port="1" />
		<edge from-layer="415" from-port="2" to-layer="417" to-port="0" />
		<edge from-layer="416" from-port="0" to-layer="417" to-port="1" />
		<edge from-layer="417" from-port="2" to-layer="418" to-port="0" />
		<edge from-layer="418" from-port="1" to-layer="419" to-port="1" />
		<edge from-layer="419" from-port="2" to-layer="421" to-port="0" />
		<edge from-layer="420" from-port="0" to-layer="421" to-port="1" />
		<edge from-layer="421" from-port="2" to-layer="423" to-port="0" />
		<edge from-layer="422" from-port="0" to-layer="423" to-port="1" />
		<edge from-layer="423" from-port="2" to-layer="425" to-port="0" />
		<edge from-layer="423" from-port="2" to-layer="424" to-port="0" />
		<edge from-layer="424" from-port="2" to-layer="434" to-port="0" />
		<edge from-layer="425" from-port="1" to-layer="428" to-port="0" />
		<edge from-layer="425" from-port="1" to-layer="432" to-port="0" />
		<edge from-layer="426" from-port="0" to-layer="428" to-port="1" />
		<edge from-layer="427" from-port="0" to-layer="428" to-port="2" />
		<edge from-layer="428" from-port="3" to-layer="433" to-port="1" />
		<edge from-layer="429" from-port="0" to-layer="433" to-port="2" />
		<edge from-layer="430" from-port="0" to-layer="432" to-port="1" />
		<edge from-layer="431" from-port="0" to-layer="432" to-port="2" />
		<edge from-layer="432" from-port="3" to-layer="433" to-port="3" />
		<edge from-layer="433" from-port="4" to-layer="434" to-port="1" />
		<edge from-layer="434" from-port="2" to-layer="436" to-port="0" />
		<edge from-layer="435" from-port="0" to-layer="436" to-port="1" />
		<edge from-layer="436" from-port="2" to-layer="437" to-port="1" />
		<edge from-layer="437" from-port="2" to-layer="439" to-port="0" />
		<edge from-layer="438" from-port="0" to-layer="439" to-port="1" />
		<edge from-layer="439" from-port="2" to-layer="445" to-port="0" />
		<edge from-layer="440" from-port="1" to-layer="443" to-port="0" />
		<edge from-layer="441" from-port="0" to-layer="443" to-port="1" />
		<edge from-layer="442" from-port="0" to-layer="443" to-port="2" />
		<edge from-layer="443" from-port="3" to-layer="444" to-port="0" />
		<edge from-layer="444" from-port="2" to-layer="445" to-port="1" />
		<edge from-layer="445" from-port="2" to-layer="456" to-port="0" />
		<edge from-layer="446" from-port="0" to-layer="447" to-port="0" />
		<edge from-layer="447" from-port="1" to-layer="450" to-port="0" />
		<edge from-layer="448" from-port="0" to-layer="449" to-port="0" />
		<edge from-layer="449" from-port="1" to-layer="450" to-port="1" />
		<edge from-layer="450" from-port="2" to-layer="452" to-port="0" />
		<edge from-layer="451" from-port="0" to-layer="452" to-port="1" />
		<edge from-layer="452" from-port="2" to-layer="454" to-port="0" />
		<edge from-layer="453" from-port="0" to-layer="454" to-port="1" />
		<edge from-layer="454" from-port="2" to-layer="455" to-port="0" />
		<edge from-layer="455" from-port="1" to-layer="456" to-port="1" />
		<edge from-layer="456" from-port="2" to-layer="457" to-port="1" />
		<edge from-layer="457" from-port="2" to-layer="460" to-port="0" />
		<edge from-layer="457" from-port="2" to-layer="518" to-port="0" />
		<edge from-layer="457" from-port="2" to-layer="467" to-port="0" />
		<edge from-layer="458" from-port="0" to-layer="466" to-port="0" />
		<edge from-layer="459" from-port="0" to-layer="460" to-port="1" />
		<edge from-layer="460" from-port="2" to-layer="462" to-port="0" />
		<edge from-layer="461" from-port="0" to-layer="462" to-port="1" />
		<edge from-layer="462" from-port="2" to-layer="464" to-port="0" />
		<edge from-layer="463" from-port="0" to-layer="464" to-port="1" />
		<edge from-layer="464" from-port="2" to-layer="465" to-port="0" />
		<edge from-layer="465" from-port="1" to-layer="466" to-port="1" />
		<edge from-layer="466" from-port="2" to-layer="467" to-port="1" />
		<edge from-layer="467" from-port="2" to-layer="468" to-port="0" />
		<edge from-layer="467" from-port="2" to-layer="489" to-port="2" />
		<edge from-layer="467" from-port="2" to-layer="472" to-port="2" />
		<edge from-layer="467" from-port="2" to-layer="485" to-port="0" />
		<edge from-layer="468" from-port="1" to-layer="470" to-port="0" />
		<edge from-layer="469" from-port="0" to-layer="470" to-port="1" />
		<edge from-layer="470" from-port="2" to-layer="472" to-port="0" />
		<edge from-layer="471" from-port="0" to-layer="472" to-port="1" />
		<edge from-layer="472" from-port="3" to-layer="483" to-port="0" />
		<edge from-layer="473" from-port="0" to-layer="474" to-port="0" />
		<edge from-layer="474" from-port="1" to-layer="477" to-port="0" />
		<edge from-layer="475" from-port="0" to-layer="476" to-port="0" />
		<edge from-layer="476" from-port="1" to-layer="477" to-port="1" />
		<edge from-layer="477" from-port="2" to-layer="479" to-port="0" />
		<edge from-layer="478" from-port="0" to-layer="479" to-port="1" />
		<edge from-layer="479" from-port="2" to-layer="481" to-port="0" />
		<edge from-layer="480" from-port="0" to-layer="481" to-port="1" />
		<edge from-layer="481" from-port="2" to-layer="482" to-port="0" />
		<edge from-layer="482" from-port="1" to-layer="483" to-port="1" />
		<edge from-layer="483" from-port="2" to-layer="484" to-port="0" />
		<edge from-layer="484" from-port="1" to-layer="501" to-port="0" />
		<edge from-layer="485" from-port="1" to-layer="487" to-port="0" />
		<edge from-layer="486" from-port="0" to-layer="487" to-port="1" />
		<edge from-layer="487" from-port="2" to-layer="489" to-port="0" />
		<edge from-layer="488" from-port="0" to-layer="489" to-port="1" />
		<edge from-layer="489" from-port="3" to-layer="500" to-port="0" />
		<edge from-layer="490" from-port="0" to-layer="491" to-port="0" />
		<edge from-layer="491" from-port="1" to-layer="494" to-port="0" />
		<edge from-layer="492" from-port="0" to-layer="493" to-port="0" />
		<edge from-layer="493" from-port="1" to-layer="494" to-port="1" />
		<edge from-layer="494" from-port="2" to-layer="496" to-port="0" />
		<edge from-layer="495" from-port="0" to-layer="496" to-port="1" />
		<edge from-layer="496" from-port="2" to-layer="498" to-port="0" />
		<edge from-layer="497" from-port="0" to-layer="498" to-port="1" />
		<edge from-layer="498" from-port="2" to-layer="499" to-port="0" />
		<edge from-layer="499" from-port="1" to-layer="500" to-port="1" />
		<edge from-layer="500" from-port="2" to-layer="501" to-port="1" />
		<edge from-layer="501" from-port="2" to-layer="506" to-port="2" />
		<edge from-layer="501" from-port="2" to-layer="502" to-port="0" />
		<edge from-layer="502" from-port="1" to-layer="504" to-port="0" />
		<edge from-layer="503" from-port="0" to-layer="504" to-port="1" />
		<edge from-layer="504" from-port="2" to-layer="506" to-port="0" />
		<edge from-layer="505" from-port="0" to-layer="506" to-port="1" />
		<edge from-layer="506" from-port="3" to-layer="517" to-port="0" />
		<edge from-layer="507" from-port="0" to-layer="508" to-port="0" />
		<edge from-layer="508" from-port="1" to-layer="511" to-port="0" />
		<edge from-layer="509" from-port="0" to-layer="510" to-port="0" />
		<edge from-layer="510" from-port="1" to-layer="511" to-port="1" />
		<edge from-layer="511" from-port="2" to-layer="513" to-port="0" />
		<edge from-layer="512" from-port="0" to-layer="513" to-port="1" />
		<edge from-layer="513" from-port="2" to-layer="515" to-port="0" />
		<edge from-layer="514" from-port="0" to-layer="515" to-port="1" />
		<edge from-layer="515" from-port="2" to-layer="516" to-port="0" />
		<edge from-layer="516" from-port="1" to-layer="517" to-port="1" />
		<edge from-layer="517" from-port="2" to-layer="518" to-port="1" />
		<edge from-layer="518" from-port="2" to-layer="521" to-port="0" />
		<edge from-layer="518" from-port="2" to-layer="528" to-port="0" />
		<edge from-layer="519" from-port="0" to-layer="527" to-port="0" />
		<edge from-layer="520" from-port="0" to-layer="521" to-port="1" />
		<edge from-layer="521" from-port="2" to-layer="523" to-port="0" />
		<edge from-layer="522" from-port="0" to-layer="523" to-port="1" />
		<edge from-layer="523" from-port="2" to-layer="525" to-port="0" />
		<edge from-layer="524" from-port="0" to-layer="525" to-port="1" />
		<edge from-layer="525" from-port="2" to-layer="526" to-port="0" />
		<edge from-layer="526" from-port="1" to-layer="527" to-port="1" />
		<edge from-layer="527" from-port="2" to-layer="528" to-port="1" />
		<edge from-layer="528" from-port="2" to-layer="537" to-port="0" />
		<edge from-layer="529" from-port="0" to-layer="530" to-port="0" />
		<edge from-layer="530" from-port="1" to-layer="533" to-port="0" />
		<edge from-layer="531" from-port="0" to-layer="532" to-port="0" />
		<edge from-layer="532" from-port="1" to-layer="533" to-port="1" />
		<edge from-layer="533" from-port="2" to-layer="535" to-port="0" />
		<edge from-layer="534" from-port="0" to-layer="535" to-port="1" />
		<edge from-layer="535" from-port="2" to-layer="536" to-port="0" />
		<edge from-layer="536" from-port="1" to-layer="537" to-port="1" />
		<edge from-layer="537" from-port="2" to-layer="538" to-port="0" />
	</edges>
	<rt_info>
		<Runtime_version value="2024.3.0-16041-1e3b88e4e3f-releases/2024/3" />
		<conversion_parameters>
			<framework value="pytorch" />
			<is_python_object value="True" />
		</conversion_parameters>
		<nncf>
			<friendly_names_were_updated value="True" />
			<weight_compression>
				<all_layers value="False" />
				<awq value="False" />
				<gptq value="False" />
				<group_size value="1" />
				<ignored_scope value="[]" />
				<mode value="int4_asym" />
				<ratio value="1" />
				<scale_estimation value="False" />
				<sensitivity_metric value="weight_quantization_error" />
			</weight_compression>
		</nncf>
	</rt_info>
</net>
