<?xml version="1.0"?>
<net name="Model72" version="11">
	<layers>
		<layer id="0" name="input_ids" type="Parameter" version="opset1">
			<data shape="?,?" element_type="i64" />
			<output>
				<port id="0" precision="I64" names="input_ids">
					<dim>-1</dim>
					<dim>-1</dim>
				</port>
			</output>
		</layer>
		<layer id="1" name="self.embedding.weight" type="Const" version="opset1">
			<data element_type="u8" shape="32, 8" offset="0" size="256" />
			<output>
				<port id="0" precision="U8">
					<dim>32</dim>
					<dim>8</dim>
				</port>
			</output>
		</layer>
		<layer id="2" name="Convert_96669" type="Convert" version="opset1">
			<data destination_type="f16" />
			<input>
				<port id="0" precision="U8">
					<dim>32</dim>
					<dim>8</dim>
				</port>
			</input>
			<output>
				<port id="1" precision="FP16">
					<dim>32</dim>
					<dim>8</dim>
				</port>
			</output>
		</layer>
		<layer id="3" name="self.embedding.weight/zero_point" type="Const" version="opset1">
			<data element_type="u8" shape="32, 1" offset="256" size="32" />
			<output>
				<port id="0" precision="U8">
					<dim>32</dim>
					<dim>1</dim>
				</port>
			</output>
		</layer>
		<layer id="4" name="Convert_96672" type="Convert" version="opset1">
			<data destination_type="f16" />
			<input>
				<port id="0" precision="U8">
					<dim>32</dim>
					<dim>1</dim>
				</port>
			</input>
			<output>
				<port id="1" precision="FP16">
					<dim>32</dim>
					<dim>1</dim>
				</port>
			</output>
		</layer>
		<layer id="5" name="self.embedding.weight/zero_point/subtract" type="Subtract" version="opset1">
			<data auto_broadcast="numpy" />
			<input>
				<port id="0" precision="FP16">
					<dim>32</dim>
					<dim>8</dim>
				</port>
				<port id="1" precision="FP16">
					<dim>32</dim>
					<dim>1</dim>
				</port>
			</input>
			<output>
				<port id="2" precision="FP16">
					<dim>32</dim>
					<dim>8</dim>
				</port>
			</output>
		</layer>
		<layer id="6" name="self.embedding.weight/scale" type="Const" version="opset1">
			<data element_type="f16" shape="32, 1" offset="288" size="64" />
			<output>
				<port id="0" precision="FP16">
					<dim>32</dim>
					<dim>1</dim>
				</port>
			</output>
		</layer>
		<layer id="7" name="self.embedding.weight/fq_weights_0" type="Multiply" version="opset1">
			<data auto_broadcast="numpy" />
			<input>
				<port id="0" precision="FP16">
					<dim>32</dim>
					<dim>8</dim>
				</port>
				<port id="1" precision="FP16">
					<dim>32</dim>
					<dim>1</dim>
				</port>
			</input>
			<output>
				<port id="2" precision="FP16">
					<dim>32</dim>
					<dim>8</dim>
				</port>
			</output>
		</layer>
		<layer id="8" name="self.embedding.weight/fq_weights_0/convert" type="Convert" version="opset1">
			<data destination_type="f32" />
			<input>
				<port id="0" precision="FP16">
					<dim>32</dim>
					<dim>8</dim>
				</port>
			</input>
			<output>
				<port id="1" precision="FP32">
					<dim>32</dim>
					<dim>8</dim>
				</port>
			</output>
		</layer>
		<layer id="9" name="__module.embedding/aten::embedding/Convert" type="Convert" version="opset1">
			<data destination_type="i32" />
			<input>
				<port id="0" precision="I64">
					<dim>-1</dim>
					<dim>-1</dim>
				</port>
			</input>
			<output>
				<port id="1" precision="I32">
					<dim>-1</dim>
					<dim>-1</dim>
				</port>
			</output>
		</layer>
		<layer id="10" name="__module.embedding/aten::embedding/Constant" type="Const" version="opset1">
			<data element_type="i32" shape="" offset="352" size="4" />
			<output>
				<port id="0" precision="I32" />
			</output>
		</layer>
		<layer id="11" name="__module.embedding/aten::embedding/Gather" type="Gather" version="opset8">
			<data batch_dims="0" />
			<input>
				<port id="0" precision="FP32">
					<dim>32</dim>
					<dim>8</dim>
				</port>
				<port id="1" precision="I32">
					<dim>-1</dim>
					<dim>-1</dim>
				</port>
				<port id="2" precision="I32" />
			</input>
			<output>
				<port id="3" precision="FP32" names="14">
					<dim>-1</dim>
					<dim>-1</dim>
					<dim>8</dim>
				</port>
			</output>
		</layer>
		<layer id="12" name="Abs_100520" type="Abs" version="opset1">
			<input>
				<port id="0" precision="FP32">
					<dim>-1</dim>
					<dim>-1</dim>
					<dim>8</dim>
				</port>
			</input>
			<output>
				<port id="1" precision="FP32">
					<dim>-1</dim>
					<dim>-1</dim>
					<dim>8</dim>
				</port>
			</output>
		</layer>
		<layer id="13" name="MatMul_94876/sparsity_threshold" type="Const" version="opset1">
			<data element_type="f32" shape="1, 1, 1" offset="356" size="4" />
			<output>
				<port id="0" precision="FP32">
					<dim>1</dim>
					<dim>1</dim>
					<dim>1</dim>
				</port>
			</output>
		</layer>
		<layer id="14" name="LessEqual_100521" type="LessEqual" version="opset1">
			<data auto_broadcast="numpy" />
			<input>
				<port id="0" precision="FP32">
					<dim>-1</dim>
					<dim>-1</dim>
					<dim>8</dim>
				</port>
				<port id="1" precision="FP32">
					<dim>1</dim>
					<dim>1</dim>
					<dim>1</dim>
				</port>
			</input>
			<output>
				<port id="2" precision="BOOL">
					<dim>-1</dim>
					<dim>-1</dim>
					<dim>8</dim>
				</port>
			</output>
		</layer>
		<layer id="15" name="Constant_100519" type="Const" version="opset1">
			<data element_type="f32" shape="" offset="352" size="4" />
			<output>
				<port id="0" precision="FP32" />
			</output>
		</layer>
		<layer id="16" name="MatMul_94876/sparse_input" type="Select" version="opset1">
			<data auto_broadcast="numpy" />
			<input>
				<port id="0" precision="BOOL">
					<dim>-1</dim>
					<dim>-1</dim>
					<dim>8</dim>
				</port>
				<port id="1" precision="FP32" />
				<port id="2" precision="FP32">
					<dim>-1</dim>
					<dim>-1</dim>
					<dim>8</dim>
				</port>
			</input>
			<output>
				<port id="3" precision="FP32">
					<dim>-1</dim>
					<dim>-1</dim>
					<dim>8</dim>
				</port>
			</output>
		</layer>
		<layer id="17" name="self.linear2.weight" type="Const" version="opset1">
			<data element_type="u8" shape="32, 8" offset="360" size="256" />
			<output>
				<port id="0" precision="U8">
					<dim>32</dim>
					<dim>8</dim>
				</port>
			</output>
		</layer>
		<layer id="18" name="Convert_96680" type="Convert" version="opset1">
			<data destination_type="f16" />
			<input>
				<port id="0" precision="U8">
					<dim>32</dim>
					<dim>8</dim>
				</port>
			</input>
			<output>
				<port id="1" precision="FP16">
					<dim>32</dim>
					<dim>8</dim>
				</port>
			</output>
		</layer>
		<layer id="19" name="self.linear2.weight/zero_point" type="Const" version="opset1">
			<data element_type="u8" shape="32, 1" offset="616" size="32" />
			<output>
				<port id="0" precision="U8">
					<dim>32</dim>
					<dim>1</dim>
				</port>
			</output>
		</layer>
		<layer id="20" name="Convert_96683" type="Convert" version="opset1">
			<data destination_type="f16" />
			<input>
				<port id="0" precision="U8">
					<dim>32</dim>
					<dim>1</dim>
				</port>
			</input>
			<output>
				<port id="1" precision="FP16">
					<dim>32</dim>
					<dim>1</dim>
				</port>
			</output>
		</layer>
		<layer id="21" name="self.linear2.weight/zero_point/subtract" type="Subtract" version="opset1">
			<data auto_broadcast="numpy" />
			<input>
				<port id="0" precision="FP16">
					<dim>32</dim>
					<dim>8</dim>
				</port>
				<port id="1" precision="FP16">
					<dim>32</dim>
					<dim>1</dim>
				</port>
			</input>
			<output>
				<port id="2" precision="FP16">
					<dim>32</dim>
					<dim>8</dim>
				</port>
			</output>
		</layer>
		<layer id="22" name="self.linear2.weight/scale" type="Const" version="opset1">
			<data element_type="f16" shape="32, 1" offset="648" size="64" />
			<output>
				<port id="0" precision="FP16">
					<dim>32</dim>
					<dim>1</dim>
				</port>
			</output>
		</layer>
		<layer id="23" name="self.linear2.weight/fq_weights_1" type="Multiply" version="opset1">
			<data auto_broadcast="numpy" />
			<input>
				<port id="0" precision="FP16">
					<dim>32</dim>
					<dim>8</dim>
				</port>
				<port id="1" precision="FP16">
					<dim>32</dim>
					<dim>1</dim>
				</port>
			</input>
			<output>
				<port id="2" precision="FP16">
					<dim>32</dim>
					<dim>8</dim>
				</port>
			</output>
		</layer>
		<layer id="24" name="self.linear2.weight/fq_weights_1/convert" type="Convert" version="opset1">
			<data destination_type="f32" />
			<input>
				<port id="0" precision="FP16">
					<dim>32</dim>
					<dim>8</dim>
				</port>
			</input>
			<output>
				<port id="1" precision="FP32">
					<dim>32</dim>
					<dim>8</dim>
				</port>
			</output>
		</layer>
		<layer id="25" name="__module.linear2/aten::linear/MatMul" type="MatMul" version="opset1">
			<data transpose_a="false" transpose_b="true" />
			<input>
				<port id="0" precision="FP32">
					<dim>-1</dim>
					<dim>-1</dim>
					<dim>8</dim>
				</port>
				<port id="1" precision="FP32">
					<dim>32</dim>
					<dim>8</dim>
				</port>
			</input>
			<output>
				<port id="2" precision="FP32">
					<dim>-1</dim>
					<dim>-1</dim>
					<dim>32</dim>
				</port>
			</output>
		</layer>
		<layer id="27" name="Abs_100534" type="Abs" version="opset1">
			<input>
				<port id="0" precision="FP32">
					<dim>-1</dim>
					<dim>-1</dim>
					<dim>8</dim>
				</port>
			</input>
			<output>
				<port id="1" precision="FP32">
					<dim>-1</dim>
					<dim>-1</dim>
					<dim>8</dim>
				</port>
			</output>
		</layer>
		<layer id="28" name="MatMul_94865/sparsity_threshold" type="Const" version="opset1">
			<data element_type="f32" shape="1, 1, 1" offset="356" size="4" />
			<output>
				<port id="0" precision="FP32">
					<dim>1</dim>
					<dim>1</dim>
					<dim>1</dim>
				</port>
			</output>
		</layer>
		<layer id="29" name="LessEqual_100535" type="LessEqual" version="opset1">
			<data auto_broadcast="numpy" />
			<input>
				<port id="0" precision="FP32">
					<dim>-1</dim>
					<dim>-1</dim>
					<dim>8</dim>
				</port>
				<port id="1" precision="FP32">
					<dim>1</dim>
					<dim>1</dim>
					<dim>1</dim>
				</port>
			</input>
			<output>
				<port id="2" precision="BOOL">
					<dim>-1</dim>
					<dim>-1</dim>
					<dim>8</dim>
				</port>
			</output>
		</layer>
		<layer id="30" name="Constant_100533" type="Const" version="opset1">
			<data element_type="f32" shape="" offset="352" size="4" />
			<output>
				<port id="0" precision="FP32" />
			</output>
		</layer>
		<layer id="31" name="MatMul_94865/sparse_input" type="Select" version="opset1">
			<data auto_broadcast="numpy" />
			<input>
				<port id="0" precision="BOOL">
					<dim>-1</dim>
					<dim>-1</dim>
					<dim>8</dim>
				</port>
				<port id="1" precision="FP32" />
				<port id="2" precision="FP32">
					<dim>-1</dim>
					<dim>-1</dim>
					<dim>8</dim>
				</port>
			</input>
			<output>
				<port id="3" precision="FP32">
					<dim>-1</dim>
					<dim>-1</dim>
					<dim>8</dim>
				</port>
			</output>
		</layer>
		<layer id="32" name="self.linear1.weight" type="Const" version="opset1">
			<data element_type="u8" shape="16, 8" offset="712" size="128" />
			<output>
				<port id="0" precision="U8">
					<dim>16</dim>
					<dim>8</dim>
				</port>
			</output>
		</layer>
		<layer id="33" name="Convert_96691" type="Convert" version="opset1">
			<data destination_type="f16" />
			<input>
				<port id="0" precision="U8">
					<dim>16</dim>
					<dim>8</dim>
				</port>
			</input>
			<output>
				<port id="1" precision="FP16">
					<dim>16</dim>
					<dim>8</dim>
				</port>
			</output>
		</layer>
		<layer id="34" name="self.linear1.weight/zero_point" type="Const" version="opset1">
			<data element_type="u8" shape="16, 1" offset="840" size="16" />
			<output>
				<port id="0" precision="U8">
					<dim>16</dim>
					<dim>1</dim>
				</port>
			</output>
		</layer>
		<layer id="35" name="Convert_96694" type="Convert" version="opset1">
			<data destination_type="f16" />
			<input>
				<port id="0" precision="U8">
					<dim>16</dim>
					<dim>1</dim>
				</port>
			</input>
			<output>
				<port id="1" precision="FP16">
					<dim>16</dim>
					<dim>1</dim>
				</port>
			</output>
		</layer>
		<layer id="36" name="self.linear1.weight/zero_point/subtract" type="Subtract" version="opset1">
			<data auto_broadcast="numpy" />
			<input>
				<port id="0" precision="FP16">
					<dim>16</dim>
					<dim>8</dim>
				</port>
				<port id="1" precision="FP16">
					<dim>16</dim>
					<dim>1</dim>
				</port>
			</input>
			<output>
				<port id="2" precision="FP16">
					<dim>16</dim>
					<dim>8</dim>
				</port>
			</output>
		</layer>
		<layer id="37" name="self.linear1.weight/scale" type="Const" version="opset1">
			<data element_type="f16" shape="16, 1" offset="856" size="32" />
			<output>
				<port id="0" precision="FP16">
					<dim>16</dim>
					<dim>1</dim>
				</port>
			</output>
		</layer>
		<layer id="38" name="self.linear1.weight/fq_weights_1" type="Multiply" version="opset1">
			<data auto_broadcast="numpy" />
			<input>
				<port id="0" precision="FP16">
					<dim>16</dim>
					<dim>8</dim>
				</port>
				<port id="1" precision="FP16">
					<dim>16</dim>
					<dim>1</dim>
				</port>
			</input>
			<output>
				<port id="2" precision="FP16">
					<dim>16</dim>
					<dim>8</dim>
				</port>
			</output>
		</layer>
		<layer id="39" name="self.linear1.weight/fq_weights_1/convert" type="Convert" version="opset1">
			<data destination_type="f32" />
			<input>
				<port id="0" precision="FP16">
					<dim>16</dim>
					<dim>8</dim>
				</port>
			</input>
			<output>
				<port id="1" precision="FP32">
					<dim>16</dim>
					<dim>8</dim>
				</port>
			</output>
		</layer>
		<layer id="40" name="__module.linear1/aten::linear/MatMul" type="MatMul" version="opset1">
			<data transpose_a="false" transpose_b="true" />
			<input>
				<port id="0" precision="FP32">
					<dim>-1</dim>
					<dim>-1</dim>
					<dim>8</dim>
				</port>
				<port id="1" precision="FP32">
					<dim>16</dim>
					<dim>8</dim>
				</port>
			</input>
			<output>
				<port id="2" precision="FP32">
					<dim>-1</dim>
					<dim>-1</dim>
					<dim>16</dim>
				</port>
			</output>
		</layer>
		<layer id="41" name="Constant_96553" type="Const" version="opset1">
			<data element_type="f32" shape="1, 1, 16" offset="888" size="64" />
			<output>
				<port id="0" precision="FP32">
					<dim>1</dim>
					<dim>1</dim>
					<dim>16</dim>
				</port>
			</output>
		</layer>
		<layer id="42" name="__module.linear1/aten::linear/Add" type="Add" version="opset1">
			<data auto_broadcast="numpy" />
			<input>
				<port id="0" precision="FP32">
					<dim>-1</dim>
					<dim>-1</dim>
					<dim>16</dim>
				</port>
				<port id="1" precision="FP32">
					<dim>1</dim>
					<dim>1</dim>
					<dim>16</dim>
				</port>
			</input>
			<output>
				<port id="2" precision="FP32" names="17">
					<dim>-1</dim>
					<dim>-1</dim>
					<dim>16</dim>
				</port>
			</output>
		</layer>
		<layer id="43" name="Abs_100527" type="Abs" version="opset1">
			<input>
				<port id="0" precision="FP32">
					<dim>-1</dim>
					<dim>-1</dim>
					<dim>16</dim>
				</port>
			</input>
			<output>
				<port id="1" precision="FP32">
					<dim>-1</dim>
					<dim>-1</dim>
					<dim>16</dim>
				</port>
			</output>
		</layer>
		<layer id="44" name="MatMul_94871/sparsity_threshold" type="Const" version="opset1">
			<data element_type="f32" shape="1, 1, 1" offset="952" size="4" />
			<output>
				<port id="0" precision="FP32">
					<dim>1</dim>
					<dim>1</dim>
					<dim>1</dim>
				</port>
			</output>
		</layer>
		<layer id="45" name="LessEqual_100528" type="LessEqual" version="opset1">
			<data auto_broadcast="numpy" />
			<input>
				<port id="0" precision="FP32">
					<dim>-1</dim>
					<dim>-1</dim>
					<dim>16</dim>
				</port>
				<port id="1" precision="FP32">
					<dim>1</dim>
					<dim>1</dim>
					<dim>1</dim>
				</port>
			</input>
			<output>
				<port id="2" precision="BOOL">
					<dim>-1</dim>
					<dim>-1</dim>
					<dim>16</dim>
				</port>
			</output>
		</layer>
		<layer id="46" name="Constant_100526" type="Const" version="opset1">
			<data element_type="f32" shape="" offset="352" size="4" />
			<output>
				<port id="0" precision="FP32" />
			</output>
		</layer>
		<layer id="47" name="MatMul_94871/sparse_input" type="Select" version="opset1">
			<data auto_broadcast="numpy" />
			<input>
				<port id="0" precision="BOOL">
					<dim>-1</dim>
					<dim>-1</dim>
					<dim>16</dim>
				</port>
				<port id="1" precision="FP32" />
				<port id="2" precision="FP32">
					<dim>-1</dim>
					<dim>-1</dim>
					<dim>16</dim>
				</port>
			</input>
			<output>
				<port id="3" precision="FP32">
					<dim>-1</dim>
					<dim>-1</dim>
					<dim>16</dim>
				</port>
			</output>
		</layer>
		<layer id="48" name="self.linear3.weight" type="Const" version="opset1">
			<data element_type="u8" shape="8, 16" offset="956" size="128" />
			<output>
				<port id="0" precision="U8">
					<dim>8</dim>
					<dim>16</dim>
				</port>
			</output>
		</layer>
		<layer id="49" name="Convert_96702" type="Convert" version="opset1">
			<data destination_type="f16" />
			<input>
				<port id="0" precision="U8">
					<dim>8</dim>
					<dim>16</dim>
				</port>
			</input>
			<output>
				<port id="1" precision="FP16">
					<dim>8</dim>
					<dim>16</dim>
				</port>
			</output>
		</layer>
		<layer id="50" name="self.linear3.weight/zero_point" type="Const" version="opset1">
			<data element_type="u8" shape="8, 1" offset="1084" size="8" />
			<output>
				<port id="0" precision="U8">
					<dim>8</dim>
					<dim>1</dim>
				</port>
			</output>
		</layer>
		<layer id="51" name="Convert_96705" type="Convert" version="opset1">
			<data destination_type="f16" />
			<input>
				<port id="0" precision="U8">
					<dim>8</dim>
					<dim>1</dim>
				</port>
			</input>
			<output>
				<port id="1" precision="FP16">
					<dim>8</dim>
					<dim>1</dim>
				</port>
			</output>
		</layer>
		<layer id="52" name="self.linear3.weight/zero_point/subtract" type="Subtract" version="opset1">
			<data auto_broadcast="numpy" />
			<input>
				<port id="0" precision="FP16">
					<dim>8</dim>
					<dim>16</dim>
				</port>
				<port id="1" precision="FP16">
					<dim>8</dim>
					<dim>1</dim>
				</port>
			</input>
			<output>
				<port id="2" precision="FP16">
					<dim>8</dim>
					<dim>16</dim>
				</port>
			</output>
		</layer>
		<layer id="53" name="self.linear3.weight/scale" type="Const" version="opset1">
			<data element_type="f16" shape="8, 1" offset="1092" size="16" />
			<output>
				<port id="0" precision="FP16">
					<dim>8</dim>
					<dim>1</dim>
				</port>
			</output>
		</layer>
		<layer id="54" name="self.linear3.weight/fq_weights_1" type="Multiply" version="opset1">
			<data auto_broadcast="numpy" />
			<input>
				<port id="0" precision="FP16">
					<dim>8</dim>
					<dim>16</dim>
				</port>
				<port id="1" precision="FP16">
					<dim>8</dim>
					<dim>1</dim>
				</port>
			</input>
			<output>
				<port id="2" precision="FP16">
					<dim>8</dim>
					<dim>16</dim>
				</port>
			</output>
		</layer>
		<layer id="55" name="self.linear3.weight/fq_weights_1/convert" type="Convert" version="opset1">
			<data destination_type="f32" />
			<input>
				<port id="0" precision="FP16">
					<dim>8</dim>
					<dim>16</dim>
				</port>
			</input>
			<output>
				<port id="1" precision="FP32">
					<dim>8</dim>
					<dim>16</dim>
				</port>
			</output>
		</layer>
		<layer id="56" name="__module.linear3/aten::linear/MatMul" type="MatMul" version="opset1">
			<data transpose_a="false" transpose_b="true" />
			<input>
				<port id="0" precision="FP32">
					<dim>-1</dim>
					<dim>-1</dim>
					<dim>16</dim>
				</port>
				<port id="1" precision="FP32">
					<dim>8</dim>
					<dim>16</dim>
				</port>
			</input>
			<output>
				<port id="2" precision="FP32">
					<dim>-1</dim>
					<dim>-1</dim>
					<dim>8</dim>
				</port>
			</output>
		</layer>
		<layer id="57" name="Constant_96554" type="Const" version="opset1">
			<data element_type="f32" shape="1, 1, 8" offset="1108" size="32" />
			<output>
				<port id="0" precision="FP32">
					<dim>1</dim>
					<dim>1</dim>
					<dim>8</dim>
				</port>
			</output>
		</layer>
		<layer id="58" name="__module.linear3/aten::linear/Add" type="Add" version="opset1">
			<data auto_broadcast="numpy" />
			<input>
				<port id="0" precision="FP32">
					<dim>-1</dim>
					<dim>-1</dim>
					<dim>8</dim>
				</port>
				<port id="1" precision="FP32">
					<dim>1</dim>
					<dim>1</dim>
					<dim>8</dim>
				</port>
			</input>
			<output>
				<port id="2" precision="FP32">
					<dim>-1</dim>
					<dim>-1</dim>
					<dim>8</dim>
				</port>
			</output>
		</layer>
		<layer id="59" name="Result_95022" type="Result" version="opset1">
			<input>
				<port id="0" precision="FP32">
					<dim>-1</dim>
					<dim>-1</dim>
					<dim>8</dim>
				</port>
			</input>
		</layer>
		<layer id="26" name="Result_95021" type="Result" version="opset1">
			<input>
				<port id="0" precision="FP32">
					<dim>-1</dim>
					<dim>-1</dim>
					<dim>32</dim>
				</port>
			</input>
		</layer>
	</layers>
	<edges>
		<edge from-layer="0" from-port="0" to-layer="9" to-port="0" />
		<edge from-layer="1" from-port="0" to-layer="2" to-port="0" />
		<edge from-layer="2" from-port="1" to-layer="5" to-port="0" />
		<edge from-layer="3" from-port="0" to-layer="4" to-port="0" />
		<edge from-layer="4" from-port="1" to-layer="5" to-port="1" />
		<edge from-layer="5" from-port="2" to-layer="7" to-port="0" />
		<edge from-layer="6" from-port="0" to-layer="7" to-port="1" />
		<edge from-layer="7" from-port="2" to-layer="8" to-port="0" />
		<edge from-layer="8" from-port="1" to-layer="11" to-port="0" />
		<edge from-layer="9" from-port="1" to-layer="11" to-port="1" />
		<edge from-layer="10" from-port="0" to-layer="11" to-port="2" />
		<edge from-layer="11" from-port="3" to-layer="31" to-port="2" />
		<edge from-layer="11" from-port="3" to-layer="27" to-port="0" />
		<edge from-layer="11" from-port="3" to-layer="16" to-port="2" />
		<edge from-layer="11" from-port="3" to-layer="12" to-port="0" />
		<edge from-layer="12" from-port="1" to-layer="14" to-port="0" />
		<edge from-layer="13" from-port="0" to-layer="14" to-port="1" />
		<edge from-layer="14" from-port="2" to-layer="16" to-port="0" />
		<edge from-layer="15" from-port="0" to-layer="16" to-port="1" />
		<edge from-layer="16" from-port="3" to-layer="25" to-port="0" />
		<edge from-layer="17" from-port="0" to-layer="18" to-port="0" />
		<edge from-layer="18" from-port="1" to-layer="21" to-port="0" />
		<edge from-layer="19" from-port="0" to-layer="20" to-port="0" />
		<edge from-layer="20" from-port="1" to-layer="21" to-port="1" />
		<edge from-layer="21" from-port="2" to-layer="23" to-port="0" />
		<edge from-layer="22" from-port="0" to-layer="23" to-port="1" />
		<edge from-layer="23" from-port="2" to-layer="24" to-port="0" />
		<edge from-layer="24" from-port="1" to-layer="25" to-port="1" />
		<edge from-layer="25" from-port="2" to-layer="26" to-port="0" />
		<edge from-layer="27" from-port="1" to-layer="29" to-port="0" />
		<edge from-layer="28" from-port="0" to-layer="29" to-port="1" />
		<edge from-layer="29" from-port="2" to-layer="31" to-port="0" />
		<edge from-layer="30" from-port="0" to-layer="31" to-port="1" />
		<edge from-layer="31" from-port="3" to-layer="40" to-port="0" />
		<edge from-layer="32" from-port="0" to-layer="33" to-port="0" />
		<edge from-layer="33" from-port="1" to-layer="36" to-port="0" />
		<edge from-layer="34" from-port="0" to-layer="35" to-port="0" />
		<edge from-layer="35" from-port="1" to-layer="36" to-port="1" />
		<edge from-layer="36" from-port="2" to-layer="38" to-port="0" />
		<edge from-layer="37" from-port="0" to-layer="38" to-port="1" />
		<edge from-layer="38" from-port="2" to-layer="39" to-port="0" />
		<edge from-layer="39" from-port="1" to-layer="40" to-port="1" />
		<edge from-layer="40" from-port="2" to-layer="42" to-port="0" />
		<edge from-layer="41" from-port="0" to-layer="42" to-port="1" />
		<edge from-layer="42" from-port="2" to-layer="43" to-port="0" />
		<edge from-layer="42" from-port="2" to-layer="47" to-port="2" />
		<edge from-layer="43" from-port="1" to-layer="45" to-port="0" />
		<edge from-layer="44" from-port="0" to-layer="45" to-port="1" />
		<edge from-layer="45" from-port="2" to-layer="47" to-port="0" />
		<edge from-layer="46" from-port="0" to-layer="47" to-port="1" />
		<edge from-layer="47" from-port="3" to-layer="56" to-port="0" />
		<edge from-layer="48" from-port="0" to-layer="49" to-port="0" />
		<edge from-layer="49" from-port="1" to-layer="52" to-port="0" />
		<edge from-layer="50" from-port="0" to-layer="51" to-port="0" />
		<edge from-layer="51" from-port="1" to-layer="52" to-port="1" />
		<edge from-layer="52" from-port="2" to-layer="54" to-port="0" />
		<edge from-layer="53" from-port="0" to-layer="54" to-port="1" />
		<edge from-layer="54" from-port="2" to-layer="55" to-port="0" />
		<edge from-layer="55" from-port="1" to-layer="56" to-port="1" />
		<edge from-layer="56" from-port="2" to-layer="58" to-port="0" />
		<edge from-layer="57" from-port="0" to-layer="58" to-port="1" />
		<edge from-layer="58" from-port="2" to-layer="59" to-port="0" />
	</edges>
	<rt_info>
		<Runtime_version value="2024.3.0-16041-1e3b88e4e3f-releases/2024/3" />
		<conversion_parameters>
			<framework value="pytorch" />
			<is_python_object value="True" />
		</conversion_parameters>
		<nncf>
			<friendly_names_were_updated value="True" />
			<weight_compression>
				<all_layers value="False" />
				<awq value="False" />
				<gptq value="False" />
				<group_size value="-1" />
				<ignored_scope value="[]" />
				<mode value="int8_asym" />
				<ratio value="1" />
				<scale_estimation value="False" />
				<sensitivity_metric value="weight_quantization_error" />
			</weight_compression>
		</nncf>
	</rt_info>
</net>
